model_conversion/pytorch-to-onnx/pytorchbikeshare.onnx (onnx, 334395 bytes, 13 tensors)

net.0.weight f4 [256, 58]
000000 2b c5 1b 3e 31 46 94 bc dd 2b 6a 3d 27 d1 91 bd
       0.15211932 -0.018099876 0.057170738 -0.07119971
000010 9e 02 b6 bd a4 29 f8 bd 7e 0d 40 ba 98 81 59 3d
       -0.08887218 -0.12117317 -0.0007326229 0.053102106
000020 b3 9a 7c 3d 26 ff 03 3e de 71 7a bd 60 6d 99 3c
       0.06167097 0.128903 -0.06114375 0.018728912
000030 ad e0 b2 3c 6e 64 f5 bd fb b1 67 3d 8d 62 97 bc
       0.02183565 -0.11982046 0.05656622 -0.01847961
000040 cc a8 43 be 80 05 4a be 4b 9e 51 be e9 b0 5c be
       -0.1910736 -0.1972866 -0.2047054 -0.21551861
000050 9e b8 3c be 19 2f 43 be 22 90 81 be 94 f6 06 bd
       -0.18429801 -0.19060935 -0.25305277 -0.03295
000060 4d cd c5 bc c6 48 30 3e a8 8f 0e 3e 83 6d b4 3d
       -0.024145747 0.17215261 0.13921988 0.0880995
000070 05 ea 1d 3e 00 9e 8f 3e 4d a1 99 3e 8d 4e d2 bc
       0.15421303 0.28050232 0.30005875 -0.025672222
000080 c1 72 ff 3d ff a1 f3 3d 11 01 7a 3d 26 8e 3b 3d
       0.124730594 0.11896133 0.061036173 0.04578986
000090 c9 ef 5d be c3 6c bf 3d 83 16 84 3d 2f 5d 5d bd
       -0.21673502 0.093469165 0.06449606 -0.054043945
0000a0 a6 5f 39 bc af db f5 bc d1 37 ab bc 81 ed 30 3d
       -0.011314308 -0.03001198 -0.020900639 0.04319525
0000b0 ee 35 73 bc 23 fe 69 3d 9f d6 5e 3d f8 96 db 3d
       -0.014844401 0.05712713 0.054403897 0.107221544
0000c0 66 75 95 3c c7 19 1f 3e 9c 15 06 be 9e 5c de 3d
       0.018244456 0.15537177 -0.13094181 0.10857509
0000d0 04 fa 2c 3d 65 27 a2 3c 23 72 fe bc 86 4b 03 3c
       0.04223062 0.019794175 -0.031060284 0.008013612
0000e0 c7 3e 83 3d 6e 88 05 3e c9 e0 47 3c 5d 0c 45 3d
       0.06408458 0.13040325 0.012199589 0.048107494
0000f0 56 09 13 be 0e ca 8c 3e 8c 15 88 3e 6c bd a0 bd
       -0.1435903 0.27497905 0.2657894 -0.07848629
000100 6c b6 1a be 2f a5 2e 3d ce fb e7 bd cd 53 03 be
       -0.15108651 0.042638 -0.11327325 -0.12824936
000110 18 69 fe bd c5 30 a5 bd 08 72 cf bd 04 90 3c be
       -0.12422389 -0.08065943 -0.101291716 -0.18414313
000120 c1 9f 7c 3e 2f 59 26 3e b5 05 27 3e c7 d1 2d 3e
       0.24670316 0.16244958 0.16310771 0.16974555
000130 a0 7f 24 3e cf 8a 22 3e 02 00 90 3e 4b 85 8d 3e
       0.1606431 0.15873264 0.28125006 0.27640757
000140 68 b5 bc 3d 3f 53 95 3d b0 e9 29 3d 94 11 73 be
       0.09214288 0.072912686 0.041482627 -0.23737174
000150 e0 28 81 be 70 ee 8d be 4e 14 81 be b4 00 7d be
       -0.25226498 -0.27720976 -0.25210804 -0.247073
000160 67 c3 64 be c2 6b 82 bd e8 a1 66 bc 67 07 08 bc
       -0.22340165 -0.063682094 -0.014076687 -0.008302546
000170 76 79 7d 3c 6f 41 3b 3c ae 0d 03 bb 62 24 9f 3d
       0.015470853 0.011429175 -0.0019997167 0.07770611
000180 39 26 9e 3d 32 9e ab 3d 66 6b 03 3d 9a 5b b0 bd
       0.07722134 0.08379783 0.032084845 -0.086112216
000190 94 b6 1e be 3e 3d 69 3c 0f e6 0b 3d 70 4e 5e 3d
       -0.15499336 0.014235793 0.034154948 0.054274023
0001a0 e7 80 d5 bc 82 33 92 3d d2 7f a1 3d a0 2c 1a 3e
       -0.026062442 0.071387306 0.07885708 0.15056086
0001b0 7e d8 8f 3e 68 b6 13 3d 6a 7d 28 3c d6 28 43 3c
       0.28094858 0.036062628 0.010283807 0.0119115915
0001c0 be 17 06 be 6b 10 eb 3d da 87 91 3d bf 75 00 3d
       -0.13094994 0.11477741 0.0710599 0.03136229
0001d0 6f 96 0a 3d 7b ab a1 b9 59 5a 01 3c 89 e9 80 be
       0.03383487 -0.00030836076 0.007895076 -0.25178173
0001e0 31 c2 07 be 8d dc 3f 3e b9 89 6a 3e 0b 3c 1d bd
       -0.13257672 0.18736477 0.229041 -0.03838734
0001f0 39 d4 0f be 30 10 95 bd 92 f3 9f be 92 50 99 be
       -0.140458 -0.07278478 -0.31240517 -0.29944283
000200 62 b3 f0 bc 30 40 f7 3b d0 23 1e 3c e5 8e 1d be
       -0.029382411 0.0075454935 0.009652093 -0.15386541
000210 11 0c b3 3c b6 7f 3b 3d 4c 2f 1d bd 1d 82 01 be
       0.02185634 0.04577609 -0.038375184 -0.1264729
000220 82 b3 0f bd ca d7 f8 bc a7 ce 41 bd fb 64 b5 3d
       -0.0350833 -0.030376334 -0.04731622 0.08857151
000230 bf d9 9b 3d f9 fc c3 3d 72 67 81 3c c9 fd 27 3e
       0.07609891 0.09569735 0.015796397 0.16405405
000240 42 08 41 3e b4 3a 61 be b4 38 25 be e2 ce 22 3e
       0.18850806 -0.2199505 -0.16134912 0.15899232
000250 ae 91 31 3c 8d 2f ab 3d 62 ea 7f 3d d4 48 00 3e
       0.010837955 0.08358679 0.062479384 0.12527782
000260 eb 25 80 3e 4f 4b 47 be 08 63 a9 3d a1 82 48 be
       0.2502893 -0.19462322 0.08270842 -0.19581081
000270 57 a9 1d bc ba b3 99 3c c5 5f f7 3d e9 5c 88 bd
       -0.009622893 0.018762458 0.120788135 -0.06658346
000280 52 bd d0 3c 8e 08 bf bd ed c1 62 bd 06 dc 36 3e
       0.0254809 -0.093278036 -0.055360723 0.1785737
000290 fb bb 57 3e d3 ce 0f 3e dc 87 69 3d ce 5e 19 be
       0.21067803 0.14043741 0.05701433 -0.14977571
0002a0 4c 1b 93 be a3 93 dc 3d ce 84 83 bd bb f4 9a bc
       -0.28731763 0.10770347 -0.06421815 -0.018915525
0002b0 1d fd a5 bd a8 e3 a4 3d 77 b2 3a 3d 95 1c 7a be
       -0.08104918 0.080512345 0.045580354 -0.24424966
0002c0 da 76 93 bd 4c 93 52 3d 41 d9 5a 3e 15 3a 29 bd
       -0.072004035 0.051410004 0.21371938 -0.041315157
0002d0 58 88 44 bc 33 b2 dd bd f3 9b 15 3c f1 b4 fd bd
       -0.0119953975 -0.108250044 0.0091314195 -0.123880275
0002e0 ad 42 8e bd b0 91 9c 3d 81 59 80 3c 3a 2e f5 bd
       -0.06946311 0.07644975 0.015667679 -0.11971708
0002f0 32 db 16 bd 22 c5 28 3d 27 eb f2 bd f7 7d e3 bd
       -0.036830135 0.041203626 -0.11861258 -0.1110801
000300 cf 0b 48 bd 09 82 3d be 99 44 ff bd 98 6f c1 bd
       -0.048839387 -0.18506636 -0.12464256 -0.09445113
000310 df f4 4a be f6 cb ac bc ed 25 4e 3c 81 7b 9d 3d
       -0.19819973 -0.02109335 0.012582284 0.07689572
000320 35 c3 2f 3e 59 c8 c9 3d e2 bb 29 3e 7a b3 44 3e
       0.1716431 0.098526664 0.16575578 0.1920909
000330 a7 fe 40 3e 4c 90 58 3e 83 2a 01 3e 04 55 04 3e
       0.18847142 0.21148795 0.12613873 0.12923056
000340 5f 52 1b 3d 03 d4 67 be e8 3c 10 be f5 ed 59 3d
       0.037920352 -0.2263947 -0.14085734 0.05320545
000350 19 20 9c 3d ca 84 10 bd 86 7f d2 bd fd 6a e5 bc
       0.0762331 -0.035282888 -0.102782294 -0.028005118
000360 4f fe 8e bd 7f d1 fa bd 1c 75 b7 bd bc 68 9f be
       -0.06982099 -0.122469895 -0.08957884 -0.31134593
000370 ad ee 11 be 86 56 94 3d 9c be db 3b 25 b7 b4 bd
       -0.14251204 0.072430655 0.006706072 -0.088239945
000380 95 aa aa 3b ae e9 47 3d b6 d8 b2 3b dd 7a 1a be
       0.0052083232 0.04880684 0.005457963 -0.15085931
000390 97 04 5d be e6 ae e2 ba be 1d e7 3d e6 4d a6 3d
       -0.21583782 -0.0017294555 0.1128497 0.08120327
0003a0 6d a5 a6 bd 5e 95 8d be 7d fe 05 3e 8b f2 e5 3d
       -0.08137021 -0.2765302 0.13085361 0.11227902
0003b0 5f 2a 37 3e 42 30 12 be 32 62 3f bd df cb 34 3d
       0.17887257 -0.14276221 -0.046724506 0.04413974
0003c0 56 62 37 3d 5c 43 7f 3d 38 36 6d 3d f7 15 8e bc
       0.044771515 0.0623201 0.057913035 -0.017344458
0003d0 0c 09 2d bd 7a e3 ac 3d 69 98 03 3e 1d 0f 6b 3e
       -0.042244956 0.08441825 0.12851109 0.22954984
0003e0 5f 1a 6e 3e 3e 99 60 3e a0 d8 3c 3e f1 b7 31 3e
       0.23252247 0.21933457 0.18442011 0.17355324
0003f0 e7 d9 c4 3d 47 82 b0 bd ff 9e 66 bc 45 bc 98 bd
       0.09611874 -0.086185984 -0.014075994 -0.074577846

net.0.bias f4 [256]
000000 78 95 cf bd 68 14 48 be 26 54 0d be bc b7 56 be
       -0.10135931 -0.19539034 -0.13801631 -0.20968527
000010 2a 04 1b be 7b 0b 2b 3d 13 32 83 be 5f 65 13 be
       -0.15138307 0.041758996 -0.2562414 -0.14394139
000020 87 1a 46 be d0 92 6b be fa 04 0b be ad 65 d1 bd
       -0.19346057 -0.23005223 -0.13576117 -0.10224471
000030 54 a0 47 be 3c b0 5e 3e 79 bd 9b 3d 86 2e 15 bd
       -0.19494754 0.21746916 0.076044984 -0.03642132
000040 df be f1 bd 11 2b 89 be 84 fb 4d be fd 9d 4e be
       -0.11803984 -0.2679067 -0.20115477 -0.20177455
000050 55 e8 25 3d 95 bd 4e bd 92 75 22 bc 16 74 5f be
       0.040504772 -0.05047377 -0.009915726 -0.21821627
000060 41 4d 14 be f0 ff 6d bd a0 35 b9 3d 15 7c 16 3e
       -0.14482595 -0.05810541 0.09043431 0.14695771
000070 4a b5 14 be dd 90 5c 3d 7a fc 65 bd 5a d4 28 3b
       -0.14522281 0.05384909 -0.056148984 0.0025761337
000080 20 2d a2 3d bc d1 26 be a8 99 92 be d3 fd 29 3d
       0.07918763 -0.16290945 -0.28632855 0.04150183
000090 fd 04 9c bd 4c bc d8 3b fe a6 94 be 60 9c 0e bd
       -0.07618139 0.0066142436 -0.29033655 -0.0348171
0000a0 0e 50 f7 bd 0e 73 65 bc c6 42 c0 be 02 8b 79 bd
       -0.12075816 -0.014004482 -0.37550944 -0.060923584
0000b0 1d 75 88 bd d6 d9 8f be 88 e4 c1 bd 04 70 31 be
       -0.066629626 -0.28095883 -0.09467417 -0.17327887
0000c0 af c6 e3 3c b9 62 5b be 97 67 d9 bd f2 0f 08 3d
       0.0278047 -0.21424378 -0.10615461 0.03321833
0000d0 2b be 44 be 52 44 0c 3e 09 5e 50 bd 5f 2e 8c bc
       -0.19213168 0.13697937 -0.05087093 -0.017111955
0000e0 b3 fd e5 bd a7 ac 00 3d 51 4c 20 bd 8d 95 7c 3d
       -0.1123003 0.031414654 -0.03913528 0.06166606
0000f0 c3 ce 0c be 05 4a 0d be 6d 8e 7a be 7c 4e 44 3d
       -0.13750748 -0.13797767 -0.24468394 0.04792641
000100 80 5c 8b bd e6 32 2f be cc 44 eb bd 03 36 1d be
       -0.06804752 -0.1710926 -0.11487731 -0.15352635
000110 6f 24 ba bd 4f db 74 3d 26 57 d7 bd 5a c8 5b bd
       -0.090889804 0.05977946 -0.10514669 -0.053657867
000120 c3 8b dc bd 5b 6b 6c be f6 a0 e4 bd ae 69 13 be
       -0.10768845 -0.23087828 -0.11163513 -0.14395782
000130 f2 ad 01 be 9e 7c fc bc e1 fa 0b be f0 97 04 be
       -0.12664011 -0.03082114 -0.13669921 -0.12948585
000140 db 48 37 bd fb 9b 9b 3d 2b ef 0e be 93 75 20 3d
       -0.044747215 0.0759811 -0.13958423 0.039174628
000150 77 f6 03 bd f5 d5 73 bd 2a ef 21 be eb 15 54 be
       -0.03221747 -0.059530217 -0.1581389 -0.20711486
000160 99 7c ae bc 65 04 35 3d 4e 01 89 bc c8 f5 21 be
       -0.021299647 0.044193644 -0.016724255 -0.15816414
000170 b7 be 9f 3d aa c7 4e be 92 fe 37 be 48 42 2c be
       0.07800048 -0.20193353 -0.17968205 -0.1682216
000180 b4 82 11 be 05 8a 52 bd 0b 8e 9d 3c 47 9a c4 3d
       -0.14210016 -0.051401157 0.01923277 0.095997386
000190 a4 a0 b0 3b 07 22 c1 bd 41 e7 39 bd 11 ba 53 bd
       0.0053902436 -0.09430318 -0.045386557 -0.05169112
0001a0 61 1b 4e be 77 b7 a8 bd 86 5b 40 bd 50 c1 65 be
       -0.20127632 -0.08238118 -0.046962284 -0.22437024
0001b0 f3 a2 fe bd 86 e8 6f bb 90 f1 2f be 46 bd 84 bd
       -0.12433424 -0.00366071 -0.17181993 -0.064814135
0001c0 a5 cb 8e be 08 c9 16 be e5 ac aa 3c a9 a0 2f 3e
       -0.27889743 -0.14725125 0.020834396 0.1715113
0001d0 2a 4a 3e bd f9 eb 3c be 7d b1 23 be 9d b6 1f be
       -0.046457447 -0.18449391 -0.15985675 -0.15597005
0001e0 02 29 9d be 41 ed 24 be 03 40 73 bd 8e 55 5c be
       -0.3069535 -0.1610613 -0.05938722 -0.21517012
0001f0 5a d7 6f 3d b4 0c 73 be 81 8b 75 be b0 4c 12 3e
       0.058554985 -0.23735315 -0.23978998 0.14287066
000200 ac dd 25 be 6b e8 32 3d c0 25 5b 3e e4 7d a9 be
       -0.16197842 0.043678682 0.21401119 -0.3310386
000210 77 dd fe bd 00 b8 40 bd 7a 02 19 be 43 d0 a6 3d
       -0.12444585 -0.047050476 -0.14942351 0.081451915
000220 67 5d 75 be 07 fc 98 be b2 d0 d8 bd 76 41 4c 3c
       -0.23961411 -0.29879782 -0.105866805 0.012466779
000230 4d e7 69 be 0f 37 02 3e 1a eb 8f 3d 84 66 9b bd
       -0.2284214 0.12716316 0.07027264 -0.07587913
000240 5e 31 27 bc 8e 9a 80 3d a0 2d 9b 3d 94 dd 87 be
       -0.010204641 0.06279479 0.07577062 -0.26536238
000250 32 73 31 be 39 77 85 bd 06 21 29 be 89 f5 af 3a
       -0.173291 -0.065168805 -0.16516504 0.0013424616
000260 5a a6 0e be c0 df 84 bd ad 35 8e be 3f f8 a6 bd
       -0.13930646 -0.064879894 -0.27775326 -0.08152818
000270 19 e0 51 be 6f 6c 22 be aa cf 1c be 8b 65 fe bd
       -0.20495643 -0.15861677 -0.15313593 -0.124217115
000280 f9 43 ea bc 25 4f f6 3d dc d5 e1 3b 62 9c 9a bb
       -0.028596865 0.12026814 0.006891949 -0.0047183493
000290 13 69 66 be 92 ed 2b bd 9b 86 aa 3d aa 78 40 be
       -0.2250102 -0.04197461 0.08326455 -0.1879603
0002a0 91 f1 ca bd 57 4a 20 be 40 08 ab 3d a1 c9 45 be
       -0.099093564 -0.15653358 0.08351183 -0.19315197
0002b0 0a 7b 06 be ab 55 12 3e 9b 40 ca bd d0 66 ab bd
       -0.13132873 0.14290492 -0.09875604 -0.08369219
0002c0 74 b9 04 be 10 7f 90 3b ac 1f 2c be 1f 49 55 bd
       -0.1296137 0.0044096783 -0.16808957 -0.052071687
0002d0 30 ef b8 bd 9c 64 96 be 89 d8 59 be 59 24 8e bd
       -0.090299964 -0.29373634 -0.21274008 -0.069405265
0002e0 8e 06 31 bc 21 85 bf bc 1f 38 50 3d f8 ba 68 bd
       -0.010804785 -0.02337891 0.05083477 -0.056818932
0002f0 06 55 5c be 78 0f 9c bd 69 4b 19 3e 4d 5e 97 bd
       -0.21516809 -0.07620138 0.14970173 -0.07391033
000300 1d 19 49 be 11 47 de 3b b9 b9 07 be ee 7e 2b bd
       -0.19638486 0.006783374 -0.13254441 -0.041869096
000310 fc 2f 1b be f2 dd 50 bc c8 09 fa bd f5 54 08 be
       -0.15155023 -0.012748228 -0.12208897 -0.13313659
000320 27 7c f8 bd af ad 8e be 29 f6 5c be 4e b2 67 be
       -0.12133055 -0.27866885 -0.21578278 -0.22626612
000330 98 52 7d bd ba 4b 37 be b6 81 3e be d6 12 95 bd
       -0.061846346 -0.17899981 -0.18604168 -0.07278983
000340 bd db 77 be 49 d2 1d 3e 2d fb 3a be 93 65 8d be
       -0.24204917 0.15412249 -0.18259878 -0.27616557
000350 a9 67 e4 bd ba c6 38 be d6 77 c3 be 01 ea 63 be
       -0.11152584 -0.18044558 -0.38177365 -0.22257234
000360 54 de ac bd db dc 5f 3c 1a 5f 4e be a1 41 23 be
       -0.08440843 0.013663496 -0.20153466 -0.15943004
000370 d8 63 03 be e5 78 55 bd d7 b2 b0 3d 5b bb 81 3d
       -0.12831056 -0.052117247 0.08627861 0.06334563
000380 85 cf b1 bc b6 73 59 be ce 0e 83 3d 70 b5 c6 bd
       -0.021705398 -0.21235546 0.06399308 -0.09702575
000390 6e 37 25 bd 73 dd 49 be 0c 1d 26 be 94 aa 27 be
       -0.040336065 -0.19713382 -0.16222018 -0.16373664
0003a0 1d 91 2d be 02 1d 15 bd 10 f0 27 3e a5 28 1a 3e
       -0.16949888 -0.036404617 0.1640017 0.15054567
0003b0 a9 28 44 be d7 1f c9 bd 49 2f 1e 3d 80 ce 71 b7
       -0.19156136 -0.09820526 0.038619313 -1.4412799e-05
0003c0 3f 9c 29 3d 1e 54 13 be dd 7b 1a bd 66 05 66 bd
       0.041408774 -0.14387557 -0.03771578 -0.056157492
0003d0 ab 0c a1 be e7 5c c7 bd a8 0c 0c 3c 3b 2e 74 bd
       -0.31454977 -0.097345166 0.008547939 -0.0596144
0003e0 11 8c a6 bd 8d bf a8 bd fe 12 7c bd ed 23 c6 3d
       -0.08132184 -0.082396604 -0.06154155 0.09674821
0003f0 53 dc 7e be b6 c1 1b be 58 71 24 be 3e 99 bf bc
       -0.24888735 -0.15210614 -0.16058862 -0.023388501

net.3.weight f4 [256]
000000 c7 53 20 3f 0a 86 98 3f 9b bc 96 3f 96 be 4a 3f
       0.62627834 1.1915905 1.1776308 0.7919706
000010 9d e7 94 3f 0f 8b 83 3f 55 e0 6d 3f 1e 63 88 3f
       1.1633183 1.0276812 0.9292043 1.0655248
000020 09 a8 a9 3f 59 46 82 3f c3 c3 69 3f ce 81 6f 3f
       1.3254405 1.0177718 0.91314334 0.9355744
000030 71 e5 39 3f f0 4f 8c 3f 82 40 86 3f f0 c9 5c 3f
       0.72615725 1.0961895 1.0488436 0.8624563
000040 f7 a4 87 3f 3e bc 9e 3f 1f c6 24 3f 05 55 31 3f
       1.0597218 1.2401197 0.6436481 0.69270355
000050 6c bb a0 3f 7f 68 6f 3f 35 51 81 3f 4f 09 85 3f
       1.2557197 0.93518823 1.0102907 1.0393466
000060 53 d7 58 3f 93 e7 45 3f 0f 8d 8e 3f fc a3 82 3f
       0.8470356 0.7730648 1.1136798 1.0206294
000070 ba 9d 3a 3f a5 11 94 3f a0 82 40 3f 90 23 8d 3f
       0.7289692 1.1567885 0.7519932 1.1026478
000080 85 86 9d 3f 3b 29 7a 3f ab 44 53 3f ae 9a 66 3f
       1.2306677 0.9771916 0.82526654 0.9007977
000090 5b da 7d 3f 26 e4 63 3f 20 5a 70 3f b3 58 6e 3f
       0.9916131 0.8902 0.9388752 0.93104094
0000a0 c9 f2 75 3f e0 02 8d 3f 55 99 4d 3f 7d 48 4c 3f
       0.96073586 1.1016502 0.8031209 0.7979811
0000b0 33 21 61 3f 7a 5e 5e 3f 8f fc 95 3f 3f 33 12 3f
       0.87941283 0.8686291 1.17177 0.57109445
0000c0 72 9e 72 3f 75 d1 7e 3f bb fb 6f 3f 49 b3 94 3f
       0.9477302 0.99538356 0.93743485 1.1617213
0000d0 d4 af 62 3f eb a4 96 3f ca 05 96 3f 9e a1 50 3f
       0.8854954 1.1769079 1.1720517 0.8149661
0000e0 fd 57 80 3f 24 63 60 3f ec e7 87 3f c4 3f 93 3f
       1.0026852 0.87651277 1.0617652 1.1503835
0000f0 95 60 5b 3f 4c 3b 95 3f 97 15 42 3f 72 a4 8d 3f
       0.8569425 1.1658721 0.75814193 1.106581
000100 a2 76 9c 3f 86 aa b2 3f c6 be 61 3f e9 81 83 3f
       1.2223704 1.395829 0.8818172 1.027402
000110 40 bd 60 3f 26 f3 75 3f c2 df 7b 3f 0e 3b 9b 3f
       0.8778877 0.9607414 0.983883 1.2127397
000120 ac b2 68 3f 60 92 5c 3f 2b 97 9b 3f f7 d1 58 3f
       0.9089763 0.8616085 1.2155508 0.8469538
000130 be 9c 77 3f 41 85 84 3f 43 e7 b2 3f 71 1d 74 3f
       0.96723545 1.0353166 1.3976825 0.95357424
000140 52 a4 4c 3f 1a c1 76 3f a6 74 a2 3f a1 38 88 3f
       0.7993823 0.963884 1.2691848 1.0642282
000150 47 71 40 3f 15 39 58 3f ae aa 87 3f e1 5e 7f 3f
       0.7517285 0.844621 1.0598962 0.9975415
000160 40 06 66 3f c7 e7 85 3f 7c f5 70 3f 8e b0 03 3f
       0.89853287 1.0461358 0.9412458 0.51441276
000170 d0 de 81 3f 58 c3 71 3f 0d 7b 4e 3f a4 aa 81 3f
       1.0146122 0.94438696 0.8065651 1.01302
000180 d9 19 73 3f 1e d0 96 3f 1c 0f 9f 3f f8 f4 88 3f
       0.94961315 1.1782262 1.2426486 1.0699759
000190 e8 e9 6f 3f 9b 20 7f 3f 6a 2e 84 3f 37 c8 33 3f
       0.9371629 0.99659127 1.0326664 0.7022738
0001a0 ee ed 33 3f 90 59 8f 3f 13 8d 8a 3f d2 54 0c 3f
       0.70284927 1.1199207 1.0824302 0.54816926
0001b0 62 30 7e 3f 0b 86 ae 3f 69 83 62 3f 52 02 87 3f
       0.99292576 1.3634657 0.88481766 1.0547583
0001c0 72 65 46 3f 58 bb 5c 3f 3b bf 7c 3f 09 ef 8d 3f
       0.77498543 0.86223364 0.98729295 1.1088573
0001d0 4f 6c a4 3f 6a e5 59 3f d8 75 64 3f be 3b 3c 3f
       1.2845553 0.85115683 0.89242315 0.7352866
0001e0 b9 1d 36 3f b3 23 6c 3f 0b 08 66 3f e5 df aa 3f
       0.71139103 0.9224197 0.8985602 1.3349577
0001f0 52 41 83 3f 3e 79 95 3f 72 c2 53 3f 3f c5 87 3f
       1.0254309 1.1677625 0.82718575 1.060707
000200 7b 6f 6e 3f f8 3b 84 3f 2e 85 8c 3f 58 33 85 3f
       0.93138856 1.0330801 1.0978143 1.0406294
000210 ec 81 5e 3f e8 83 b0 3f fa 52 66 3f b8 7c a2 3f
       0.86916995 1.3790255 0.8997036 1.2694311
000220 e7 e0 7c 3f 5c 40 3f 3f b8 62 76 3f e3 03 af 3f
       0.98780674 0.7470758 0.9624438 1.3673061
000230 2b 2e 5c 3f 61 9d a3 3f 29 99 44 3f aa 60 76 3f
       0.86007947 1.2782403 0.76796204 0.9624125
000240 50 a5 6b 3f 20 7f 91 3f e2 84 9f 3f ce 5f 9c 3f
       0.9204912 1.136692 1.2462428 1.2216737
000250 0f fb 57 3f 68 f4 65 3f ad ed 8b 3f 6e f3 79 3f
       0.8436746 0.8982606 1.0931908 0.9763707
000260 3e 3e 4f 3f c8 1c 55 3f 0e 77 6d 3f 6d fc 59 3f
       0.8095435 0.8324704 0.9275979 0.85150796
000270 66 e6 54 3f 85 20 ae 3f 43 5d 32 3f 3c 46 65 3f
       0.8316406 1.3603674 0.69673556 0.89560294
000280 9e b8 93 3f 03 25 9b 3f 4b 75 7a 3f 35 7f 86 3f
       1.1540716 1.212067 0.97835225 1.050757
000290 af 9c 89 3f 6b b2 89 3f 87 ff 8a 3f 61 44 59 3f
       1.0750941 1.0757574 1.0859231 0.8486996
0002a0 d6 ca 5b 3f b3 d8 8c 3f 61 af 98 3f 14 1b 15 3f
       0.8585638 1.1003631 1.1928521 0.5824444
0002b0 68 e4 74 3f 3f 97 8d 3f 31 f3 63 3f 6e 17 8c 3f
       0.9566102 1.1061782 0.89042956 1.094465
0002c0 75 15 7a 3f fa 6a 60 3f cf 22 7b 3f 3c c5 1d 3f
       0.9768899 0.87663233 0.9809999 0.6162908
0002d0 8f 8c 18 3f 01 e9 54 3f 63 75 8a 3f 16 a7 5b 3f
       0.59589475 0.83168036 1.0817074 0.8580183
0002e0 6c ce 63 3f b7 45 47 3f 6c 03 90 3f b8 48 49 3f
       0.8898685 0.7784075 1.1251044 0.78626585
0002f0 39 f6 4c 3f dc de a0 3f 8f 68 a2 3f f0 56 1c 3f
       0.80063206 1.2568011 1.2688159 0.61070156
000300 e8 2b 51 3f e4 b2 74 3f b6 b2 70 3f f1 58 5b 3f
       0.8170762 0.95585465 0.9402269 0.8568259
000310 8e 88 68 3f c3 6a 8d 3f fe 30 71 3f 7d 5d 4d 3f
       0.90833366 1.1048206 0.9421538 0.80220777
000320 d0 26 8f 3f 9f bd 87 3f 9d 84 87 3f be 38 80 3f
       1.118372 1.0604743 1.0587345 1.0017316
000330 44 4c 82 3f 01 1c 82 3f 0e 03 56 3f 44 bf 74 3f
       1.0179524 1.0164796 0.8359841 0.9560435
000340 68 1f 8b 3f 7a b1 9b 3f 7d ed 57 3f 1e bf 97 3f
       1.086896 1.2163537 0.84346753 1.1855199
000350 d9 51 83 3f 8a 57 47 3f a4 f5 3d 3f 61 f7 44 3f
       1.0259353 0.7786795 0.7420294 0.7693997
000360 ea 33 7a 3f f1 b3 63 3f 13 ac 92 3f ec 45 83 3f
       0.97735465 0.88946444 1.1458763 1.0255713
000370 ea 53 94 3f ae eb 99 3f 98 d1 84 3f ef 44 7d 3f
       1.1588109 1.2025049 1.0376463 0.9893331
000380 43 06 66 3f 90 5b 71 3f ee a7 34 3f 5b db 32 3f
       0.89853305 0.9428034 0.7056874 0.6986596
000390 c1 0a 80 3f 56 0b 79 3f fc 5b 87 3f 10 a6 78 3f
       1.0003282 0.9728292 1.0574946 0.9712839
0003a0 49 7b 56 3f c4 60 17 3f 92 3b 92 3f 91 cc 86 3f
       0.8378187 0.5913203 1.142443 1.0531179
0003b0 3c 01 31 3f 12 88 55 3f d4 cf ae 3f 0e 34 3d 3f
       0.6914251 0.8341075 1.3657174 0.73907554
0003c0 51 bd 98 3f 80 2a 6a 3f 5b fb 47 3f 6b 19 95 3f
       1.1932775 0.914711 0.78117913 1.1648382
0003d0 16 c4 51 3f 18 5f 4c 3f 8b c8 96 3f 6b 5b 85 3f
       0.8193983 0.798326 1.1779951 1.0418524
0003e0 36 4a 5e 3f ec ba 87 3f 39 0d 75 3f 3a c0 83 3f
       0.86831987 1.0603919 0.957233 1.0293038
0003f0 90 2f 64 3f 78 be 7e 3f 60 3c 87 3f 9d d3 84 3f
       0.89135075 0.9950938 1.05653 1.0377079

net.3.bias f4 [256]
000000 d9 bd 7c bc 7f e5 26 bd 2b 40 9f 3e 2d 27 bc 3d
       -0.015426123 -0.04074621 0.31103644 0.0918716
000010 cc 95 7c 3e 2f bb 1c 3d 21 db 04 bd dc 65 75 3e
       0.24666518 0.03826445 -0.03243554 0.23964638
000020 f0 6e 2a 3e 1c 66 64 3e 59 93 02 3e b5 9e 1a bd
       0.16643882 0.22304577 0.12751521 -0.03774901
000030 92 c5 df 3c 12 52 ba 3e 14 e6 a6 3d c6 8c 81 3d
       0.027315889 0.3639074 0.08149353 0.063256785
000040 f2 f7 18 bd 56 e4 20 3e 90 72 b5 3d ed 03 a1 3e
       -0.037345834 0.15712103 0.08859742 0.31448308
000050 49 59 a3 3d 14 ed 1a bb 4a 5d 75 3e 3e a4 31 3e
       0.07976014 -0.0023639845 0.23961368 0.1734781
000060 75 34 ec bb 0b af 04 be a3 c8 68 3e 9f 96 0a 3e
       -0.007208402 -0.12957399 0.22732787 0.1353402
000070 25 09 87 be 40 60 6e 3e 17 5c 8d bc 21 5a 15 3e
       -0.26374164 0.23278904 -0.017255826 0.14585163
000080 a2 5b c3 3e 8a 7a 1d 3e b7 96 85 3e df ac cb 3d
       0.38155848 0.15378776 0.2609155 0.09945082
000090 3b 5c fb bb 0a 30 8b 3a 62 15 94 3e 23 3b 5b 3e
       -0.007670907 0.0010619175 0.28922564 0.21409278
0000a0 ef 01 09 3e 5b 04 53 3e b7 06 0d 3d 1d ff 31 3e
       0.13379644 0.2060713 0.034430232 0.17382474
0000b0 8b 7b 05 bc a6 75 0a 3e 68 61 05 3e 36 79 9c 3c
       -0.008147131 0.13521442 0.13025439 0.019100767
0000c0 e3 bc 58 3e 9c 21 ed 3d af fd 78 3e 91 20 04 3e
       0.21165805 0.11578676 0.24315523 0.12903048
0000d0 89 26 4d bc eb 86 0e 3f d2 c9 9d 3e d1 b5 d1 bd
       -0.0125213945 0.5567462 0.3081804 -0.10239757
0000e0 05 78 52 3e 7c 58 25 be 1c f8 b5 3e cb ee 70 3e
       0.20553596 -0.16147035 0.35540855 0.23528592
0000f0 07 b9 af 3d 60 e9 0c bd 86 fa bb 3e f1 aa a1 3e
       0.08580213 -0.03440225 0.36714572 0.3157573
000100 66 75 66 3e 19 87 7f 3e 96 0d 92 39 d4 b7 e4 3e
       0.22505721 0.2495388 0.00027857412 0.446715
000110 90 e2 84 3e e7 92 72 3d 48 96 d8 ba df 66 a6 3e
       0.25954103 0.05922213 -0.001652428 0.3250036
000120 75 3b 3a 3e 4a 25 36 3e 8b b7 46 3d de f2 bb bc
       0.18186744 0.17787662 0.048514884 -0.022942957
000130 59 0d 5d 3d ef 28 3f 3e ce d5 70 3e f2 c9 f9 3d
       0.053967807 0.18667959 0.2351906 0.12196721
000140 74 22 2b 3e 6b 8f 17 3e 46 62 1e 3e 7d 62 ae 3e
       0.16712362 0.14800803 0.15467176 0.34059516
000150 74 50 ef bd b3 d1 27 bc 2d b3 47 3e d6 de 08 3e
       -0.11685267 -0.010242867 0.19501944 0.13366255
000160 87 50 e1 3c 49 95 e0 3e e0 ae c3 3b 45 61 84 3d
       0.027504219 0.43863896 0.0059717745 0.06463865
000170 e4 a2 45 3e fe 3c 24 3a 39 33 69 bd ca b4 b2 bd
       0.19300419 0.0006265192 -0.056933615 -0.08725889
000180 e0 27 1e 3e b4 14 2a 3d 51 8d e1 3e 5a d6 04 3e
       0.15444899 0.04152365 0.44053128 0.12972394
000190 18 bb 58 be b5 bb 85 3e 56 bf 47 3e 1f cd 35 3d
       -0.2116512 0.26119772 0.19506583 0.04438507
0001a0 64 41 cf 3d 7f f1 97 3e 16 9d b0 3d 6d d1 aa bd
       0.10119894 0.29676434 0.08623712 -0.08340726
0001b0 72 96 8d 3e 01 7d 08 3e a2 b2 1b 3e f5 02 a3 3e
       0.27653843 0.13328935 0.15204862 0.31838194
0001c0 f9 17 95 3c d4 52 46 3e ef 51 6b 3d 1c c0 37 3d
       0.018199908 0.19367534 0.057451185 0.044860944
0001d0 6c e7 be 3d 87 8b 57 3e eb 0f 87 3e f0 f8 a3 3d
       0.09321484 0.21049319 0.26379332 0.080064654
0001e0 60 d2 3f 3e 27 7c 14 3e 67 11 0c 3e 15 02 82 3e
       0.18732595 0.14500485 0.13678513 0.25392213
0001f0 fd 7b b2 be ab 33 93 3e cd be b1 3d 5c f3 49 3e
       -0.3486022 0.28750357 0.086789705 0.1972174
000200 10 b3 a5 bb 2d d9 aa 3d 96 bf 10 3e 6b b3 ea 3d
       -0.0050567463 0.08342204 0.14135584 0.114600025
000210 21 10 3a 3e e4 73 3e 3e 8c ec fc 3d b3 77 e7 3e
       0.18170215 0.18598896 0.12349805 0.4520851
000220 d7 64 13 3d 11 2e cf 3e e8 26 d8 3e f0 16 bf 3e
       0.03598484 0.40464833 0.42217183 0.37322187
000230 ee cb 1e bb 56 ca b7 3e 6c a2 db 3b d6 69 b3 3d
       -0.0024230438 0.35896558 0.006702712 0.08760421
000240 62 fb c2 3d f7 71 be 3e 5b 30 b6 3e 8a f6 93 3e
       0.09520604 0.37196323 0.35583767 0.28899032
000250 bd e3 bc 3c 1c ad 15 3e ab 19 19 3f 56 43 77 3d
       0.023057813 0.14616817 0.5980479 0.06036695
000260 9a c5 06 3e d8 86 09 3d 87 da 48 3d ff f0 38 ba
       0.13161317 0.033575863 0.04903653 -0.0007054954
000270 7b 92 fc 3d 92 7e b4 3e 14 35 7a 3d 38 67 09 bd
       0.123326264 0.35252815 0.061085775 -0.033545703
000280 4f 2f 4a 3e c1 03 8a 3e 67 b1 7a 3d fa 41 2b 3e
       0.1974461 0.2695599 0.06120434 0.16724387
000290 de 97 5b 3e 17 63 5e 3f 0d 53 9c 3e e3 d3 a7 3d
       0.21444651 0.8686995 0.30532113 0.08194711
0002a0 f7 05 90 3c 23 96 b5 3e 68 ac 0d 3e e0 c0 6e 3d
       0.01758097 0.35466108 0.13835299 0.05828941
0002b0 1e a3 e3 3d 60 b1 94 3e df ea 2d 3d 3b 1c 51 3e
       0.111150965 0.29041576 0.04246032 0.20420925
0002c0 ba a1 bb b8 dc e7 06 3c bd 9d 89 3e 83 f8 64 bd
       -8.946979e-05 0.0082339905 0.26878157 -0.05590106
0002d0 02 d9 9c bd 9a 99 87 bd 42 f3 48 3e fc 8c 24 3e
       -0.076585785 -0.06621094 0.19624045 0.16069406
0002e0 f5 38 8a bd ce ca 08 be 1a eb ff 3e fd 77 4a 3e
       -0.06749145 -0.13358614 0.49984056 0.19772334
0002f0 f4 5c 34 bd 5c d8 74 3e 69 d8 91 3e 05 88 97 3e
       -0.04403396 0.2391066 0.2848542 0.29595962
000300 c4 ca dc 3d 65 83 95 3d 5e 53 25 3e 4c ab 63 be
       0.10780862 0.07300452 0.16145083 -0.22233313
000310 a7 46 12 3d 67 28 34 3e 89 6d e7 3d dc d7 0a 3e
       0.03571191 0.17593537 0.11300189 0.13558906
000320 e0 48 0b 3e 6c 84 07 3f 32 12 73 3e 6e 0a 8f 3e
       0.13602018 0.52936435 0.2373741 0.27937645
000330 42 18 53 3e 57 c2 2f 3e cd 6b 78 3d 90 c9 84 3d
       0.20614722 0.17163979 0.06064968 0.064837575
000340 c9 53 26 3f 30 3f 28 3f d8 84 a0 3d 50 af 7a 3e
       0.64971596 0.65721416 0.07837838 0.24480939
000350 13 07 5d 3e c0 10 e9 bd d7 85 cb 3e 5b 39 56 bd
       0.2158473 -0.11380148 0.3975055 -0.052300792
000360 1b 30 bc 3d 4c 90 74 3d ef 4a a0 3e 7c 17 da 3e
       0.09188863 0.059707925 0.3130717 0.42596042
000370 36 64 8f 3e dc b3 10 3e d9 f0 9f 3d b8 ae 9f 3e
       0.28006142 0.14131111 0.0780961 0.31187987
000380 a5 7d 42 be c4 24 20 3d a4 9f 7d 3e c0 7f 53 3e
       -0.18993242 0.039097562 0.2476793 0.20654202
000390 80 84 ac 3d 29 4c a3 3c 82 87 68 3e bb 4d 4e 3e
       0.0842371 0.019933777 0.22707942 0.2014684
0003a0 49 42 ea 3d 41 0e 2f bd 65 77 02 3f e0 bd 47 3e
       0.11438424 -0.042738203 0.5096343 0.19506025
0003b0 f5 c2 17 3d 68 0a a1 3c 1a 61 32 bd 96 10 0b 3e
       0.03705116 0.019658282 -0.043549635 0.13580546
0003c0 30 e9 f1 3d be 23 f7 3d be ff d3 bc 9d c2 cb 3e
       0.11812055 0.12067364 -0.025878783 0.39796916
0003d0 a2 3e 1f 3e e9 e3 8d be cb 45 ab bd d7 cc 4a 3c
       0.15551236 -0.27712944 -0.08362921 0.012377939
0003e0 fa dc a2 3e 35 89 10 3f 9a b4 82 3e ea e2 2a 3e
       0.31809217 0.5645936 0.25528413 0.16688123
0003f0 7f 42 14 3d 7c a3 10 3f c3 d9 cd 3e e4 26 6f 3c
       0.036196228 0.5649946 0.40205202 0.014596675

net.3.running_mean f4 [256]
000000 ef 7b 97 3d cc a9 81 3c a2 fa 2c 3b f1 f0 7e 3c
       0.07396685 0.015828036 0.0026394506 0.015560375
000010 1a e5 8b 3d b2 11 bc 3d 0a 97 af 3b 66 e2 05 3d
       0.06830807 0.091830626 0.0053585814 0.032686614
000020 79 54 da 3c 66 e3 2e 3c 9e 5d 5d 3c 60 ff 83 3b
       0.026651608 0.010674333 0.01351109 0.004028246
000030 7d 47 dd 3b 8e e3 d5 3d 07 b2 2a 3d 66 08 6f 3c
       0.006752907 0.10443793 0.041673686 0.014589405
000040 db 33 53 3d dd 3c 12 3c 7d e1 9a 3b 92 43 74 3c
       0.051563125 0.008925644 0.0047265873 0.014908688
000050 1b 22 a5 3d 87 b0 30 3d e6 00 64 3b e2 d1 67 38
       0.08063146 0.0431371 0.0034790575 5.527016e-05
000060 64 6f a0 3b 05 f8 42 3d 26 dd e9 3d a9 fe eb 3d
       0.0048960913 0.04759981 0.11419134 0.11523182
000070 e1 17 bd 3b 30 7f 0d 3d b5 9f 06 3d e8 e8 a7 3d
       0.005770669 0.034545124 0.032867152 0.0819872
000080 f9 61 37 3c 05 7c b2 3c ff 1b e6 3b ab 45 96 3d
       0.011192792 0.021787653 0.0070223804 0.07337507
000090 b5 e8 2f 3c 05 39 8d 3d 6c 70 51 3c fb a8 0c 3c
       0.010736634 0.06895641 0.012783151 0.00858521
0000a0 08 2d cb 3c 56 46 93 3d ad bd fb 3b 9e e7 d5 3c
       0.024801746 0.0719115 0.007682523 0.02611142
0000b0 8b 21 14 3d 73 68 68 3c 88 13 19 3d df c4 87 3c
       0.0361648 0.014185059 0.037372142 0.016573368
0000c0 04 99 cb 3c 8f 33 b8 3b 58 95 06 3d e4 d3 4a 3d
       0.024853237 0.0056213806 0.03285727 0.04951848
0000d0 c5 f5 f6 3b 4e b8 07 3d 38 a7 a4 3c 64 11 af 3c
       0.007536622 0.03313475 0.020099267 0.021370597
0000e0 c5 72 25 3d b2 76 ce 3d 7c 2b 08 3e 36 15 d2 3d
       0.040392656 0.10081233 0.13297838 0.10257952
0000f0 79 9a 1b 3c 9e 31 0c 3d 08 c9 84 3a 5e 92 90 3d
       0.009497278 0.034227006 0.0010130713 0.07059167
000100 1b 95 bd 3d 56 5a 1c 3c 40 91 26 3c c4 09 13 3d
       0.09256955 0.009543022 0.010166466 0.035897985
000110 15 af 1c 3d 0d 2a c4 3d bb 6f f5 3c 7a d7 65 3d
       0.03825291 0.09578333 0.029960504 0.056113698
000120 be a1 54 2b dd 35 98 3b 6d aa c8 3c 9e 47 dd 3c
       7.554199e-13 0.004645093 0.024495328 0.027011689
000130 83 bd 4f 3d d3 6b d8 3d d6 dd 69 3c 74 b9 4f 3d
       0.05071784 0.10567441 0.014274081 0.05071397
000140 75 e1 5e 3d 87 39 c3 3d d0 e9 2e 3b 5d 0d f1 3c
       0.05441423 0.09532457 0.0026689656 0.029425317
000150 d2 29 9c 3d 0a 43 4e 3d 51 4d 39 3d bd 77 9a 3c
       0.07625164 0.050356902 0.04523975 0.018855924
000160 ae 5d 9d 3c 1c ab c0 3c 89 a7 e8 3d e0 2a 00 3d
       0.019209709 0.023519091 0.1136008 0.03129089
000170 a2 0f f0 3d 76 41 a2 3c b7 f7 98 3c 87 85 4c 3a
       0.11721732 0.019806605 0.018672807 0.00078018795
000180 44 54 a7 3c 18 1a 2c 3d 2e 00 73 3b 5a b7 fc 3c
       0.020425923 0.042017072 0.0037078965 0.030849148
000190 86 47 88 3d cb d4 32 3d a2 96 fe 3c 06 83 30 3c
       0.06654267 0.043659966 0.031077687 0.010773426
0001a0 99 fc 8e 3b 39 3f 9b 3d 72 12 46 3d 75 01 f4 3b
       0.004363608 0.07580418 0.048357435 0.0074464628
0001b0 20 ac 16 3b ea 44 ff 3c 3f 40 33 3c 10 6f ef 3b
       0.0022990778 0.03116079 0.01094061 0.007306941
0001c0 9c 04 3e 3b 92 07 d9 3c 7b af 84 3c 03 80 8d 3d
       0.0028994447 0.026492868 0.016196957 0.06909182
0001d0 fa af c5 3b ba d0 6d 3d f7 81 11 3d 9d 97 5f 3a
       0.006032941 0.058060385 0.035524335 0.0008529367
0001e0 3b c4 b1 3b 77 71 b7 3b 68 ba 28 3b dc 55 ba 3b
       0.005425004 0.005598243 0.0025745872 0.0056865048
0001f0 c1 70 69 3d 38 df e7 3b 48 f1 c2 3b 2a 0c 85 3d
       0.056992296 0.0070761703 0.005949173 0.06496461
000200 48 f2 8b 3c 6f 8e c5 3d 4a 82 11 3e bd b5 26 3b
       0.017083302 0.09646308 0.14209858 0.0025437914
000210 16 00 e6 3c 4c 48 c1 3b 29 ab a7 3a 2d aa 9e 3d
       0.028076213 0.005898511 0.0012792099 0.07747302
000220 6c 94 2b 3c 46 73 a2 3c c8 2d 91 3d 1f 25 45 3c
       0.010472398 0.019830357 0.0708881 0.012032776
000230 8a e3 07 3d 93 78 21 3c 30 52 0b 3d 30 63 1d 3c
       0.033175983 0.009855407 0.034013927 0.009606168
000240 91 7d d6 3d 61 0d 2b 3c d0 74 25 3d 78 a3 3d 3a
       0.10473169 0.0104402015 0.040394604 0.00072341366
000250 60 94 75 3d 91 97 bd 3d ea 54 dc 37 c6 a0 42 3c
       0.059955955 0.092574246 2.6265585e-05 0.011879152
000260 6f a0 03 3c 38 3a bf 3c f7 9c e1 3a e9 ab 1d 3d
       0.008033856 0.02334319 0.0017212917 0.038494024
000270 76 8a 4b 3c 38 fe 3c 3c dc 14 c9 3c 94 36 90 3c
       0.012423148 0.01153522 0.02454608 0.01760415
000280 37 6a 8e 3d fb f5 d8 3d 2f ff 23 3e 1c 47 94 3d
       0.069538526 0.10593792 0.16015314 0.072401255
000290 57 4e b9 38 f3 b7 c5 3c f3 d3 54 3c ac 4a 0c 3d
       8.836079e-05 0.024135565 0.012989986 0.0342509
0002a0 61 fd 04 3c 79 ce e3 38 58 58 b7 3c 80 3b 55 3b
       0.008117051 0.00010862662 0.022380993 0.0032536685
0002b0 b4 63 b3 3c 2f d5 bb 3d 83 93 f3 3c a1 7e 62 3d
       0.021898128 0.09171521 0.029733425 0.055296544
0002c0 c0 0f 87 07 17 66 07 3d 90 5c 33 3c 5f 87 91 3d
       2.03218e-34 0.033056345 0.010947362 0.07105898
0002d0 2d 0f 5b 3c d9 7b 10 3c 11 28 c9 3c ba a0 eb 3b
       0.013370317 0.00881859 0.024555238 0.007190791
0002e0 56 3e 4f 3d 4d cc a8 3c 91 b3 16 3d b6 6c 03 3d
       0.050596558 0.02060523 0.03679234 0.032086097
0002f0 40 f8 d1 3b 08 52 80 3d 8e a2 1e 3d ec a6 99 3a
       0.0064077675 0.06265646 0.038729243 0.001172272
000300 cd b1 c6 3c 97 56 94 3c 88 92 63 3d 5b c6 30 3d
       0.024254704 0.018107696 0.055559665 0.043157917
000310 5c 86 47 3b 97 ce 34 3d 36 f6 81 3b 32 f8 ea 3c
       0.0030445075 0.044142332 0.003966118 0.028682802
000320 3d d2 82 3d 7f 92 06 3d b2 1a 06 3d 5d 4e 0f 3c
       0.06387756 0.032854553 0.032740302 0.008746711
000330 d7 dd 8f 3c 25 67 70 3b 0c ea 61 3a 3e 2f 2d 3c
       0.017561836 0.0036682573 0.00086179445 0.010570345
000340 fe d0 d0 3b 9e 56 64 3c 34 6f f5 3c 1d 59 f2 3c
       0.00637257 0.013936667 0.029960252 0.029583508
000350 1e de 22 3b 85 62 8f 3b 0a f5 3d 3b dc 5e ac 3b
       0.002485163 0.004375758 0.0028985166 0.0052603316
000360 f8 7c de 3c 97 49 1c 3e 87 6a 38 39 e4 24 a6 3d
       0.0271592 0.15262447 0.00017587292 0.08112505
000370 cb fa d5 3c d6 3a 47 3d 16 37 d3 3d dd ab db 3d
       0.026120564 0.048640095 0.10313241 0.1072614
000380 11 51 a0 3c 20 cb b7 3b 49 a1 0f 3c 19 a2 f3 3b
       0.019569905 0.005608931 0.008766481 0.007435095
000390 5c 4f cc 3d 41 df ed 3b 0a 83 59 3d 04 00 00 00
       0.09976074 0.00725928 0.053103484 6e-45
0003a0 23 31 d5 3b b7 89 96 3c 28 78 bc 3d 81 96 68 3c
       0.0065061017 0.018376214 0.092026055 0.014196039
0003b0 d9 ce cf 3b e6 95 af 3c 79 62 d2 3d 96 fb fc 3c
       0.006341797 0.021433782 0.102726884 0.030881684
0003c0 b6 d6 a5 3d 74 5b 77 3c a6 6e e2 3c 0f d0 59 3c
       0.080975935 0.015097488 0.027640652 0.013294234
0003d0 6b 42 fa 3b 61 3d 60 3d 1e a7 9e 3c b1 30 45 3c
       0.007637312 0.054746035 0.019366797 0.012035535
0003e0 3c 31 f2 3b ea f5 b2 3b 0a f5 a6 37 f2 74 1a 3d
       0.007391123 0.005461444 1.9902847e-05 0.037709184
0003f0 27 2d 6e 3c 04 00 00 00 a6 90 df 3c 68 15 79 3d
       0.014537132 6e-45 0.027290653 0.06081143

net.3.running_var f4 [256]
000000 d8 0b c4 3c 29 26 81 3b c0 f6 2a 3a a1 e3 73 3b
       0.023931429 0.0039413166 0.0006521754 0.0037214535
000010 27 a0 ad 3c 4c 5e 0b 3d 30 c5 68 3a 87 67 f3 3b
       0.02119453 0.034025475 0.0008879481 0.007428113
000020 3c b0 b8 3b 4c 1c 25 3b 45 ca 6a 3b 9d cf 68 3a
       0.005636243 0.0025193868 0.0035826128 0.00088810344
000030 09 d6 b2 3a 99 d7 0e 3d 22 a8 66 3c 1c 65 3c 3b
       0.001364411 0.03487358 0.014078172 0.002874679
000040 12 3d 63 3c 4a 1a af 3a 2a 7f 50 3a c0 8c 4b 3b
       0.013869541 0.0013359275 0.0007953519 0.0031059235
000050 56 59 b4 3c 7d 18 3a 3c da a4 2a 3a 7e 42 d1 36
       0.022015255 0.0113583775 0.000650955 6.236426e-06
000060 22 95 71 3a b7 84 56 3c d5 4f 13 3d 37 b5 35 3d
       0.0009215643 0.013093165 0.035964806 0.044362273
000070 4a 5b d1 3a a2 8c 3c 3c 17 6c e1 3b 35 aa c8 3c
       0.0015972641 0.011508139 0.0068793404 0.024495224
000080 41 88 3f 3b 7c 3a 91 3b 9b 88 be 3a 9f 5d e8 3c
       0.00292255 0.0044320207 0.0014536561 0.028364955
000090 48 85 22 3b 17 93 85 3c 3a c4 71 3b 56 8b 1f 3b
       0.002479868 0.01630549 0.0036890642 0.0024344525
0000a0 be 26 f8 3b 32 e2 b2 3c 31 03 aa 3a 22 5e c0 3b
       0.007572978 0.021836374 0.0012970922 0.0058705965
0000b0 92 3d 22 3c d8 9c 1b 3b 92 98 10 3c 6c c6 82 3b
       0.009902375 0.002374461 0.008825438 0.003990939
0000c0 f3 a7 ce 3b 17 79 90 3a bc 58 30 3c 3a 63 93 3c
       0.006306642 0.0011022416 0.010763343 0.01799165
0000d0 45 bc c5 3a da 15 04 3c fd f2 d3 3b 93 09 b0 3b
       0.0015086016 0.00806185 0.0064681754 0.005372235
0000e0 d3 8b 69 3c ce 9c f1 3c cd 13 57 3d 40 96 14 3d
       0.014254528 0.029493716 0.052509118 0.036276102
0000f0 8b 21 21 3b 39 f9 38 3c ec 5d 83 39 65 66 e5 3c
       0.0024586644 0.011289888 0.00025056244 0.028002927
000100 f1 8c 10 3d 0c 08 2e 3b 9f c2 08 3b f2 06 6d 3c
       0.035290662 0.002655509 0.0020867956 0.014466988
000110 ac 76 21 3c 97 db 1f 3d 20 c3 f8 3b 0b 82 9b 3c
       0.009854954 0.039027777 0.00759162 0.018982908
000120 72 a7 b1 29 82 ae 8c 3a 5e cc af 3b 2e 2c ce 3b
       7.889426e-14 0.001073316 0.0053649386 0.0062918877
000130 80 4b 7a 3c 5b 04 1f 3d 48 fb bd 3b 22 56 88 3c
       0.01527679 0.038822513 0.0057977773 0.016642634
000140 cc 90 62 3c 71 77 01 3d b3 c9 12 3a b8 69 31 3c
       0.013828468 0.03160805 0.00055995135 0.010828428
000150 42 2e b1 3c b2 e5 30 3c 90 3c 5a 3c 55 46 91 3b
       0.021628503 0.010796951 0.013320103 0.004433433
000160 fe 85 83 3b e1 a3 04 3c 55 e9 11 3d 28 37 1c 3c
       0.004013776 0.008095712 0.035622913 0.009534635
000170 c1 9f 28 3d 76 7e 94 3b de 3c 8f 3b 3d 1d 43 39
       0.04116798 0.004531677 0.0043712696 0.00018607541
000180 ae a4 8b 3b f9 79 4a 3c 3f 0a b1 3a 72 0c ee 3b
       0.0042615747 0.012358182 0.0013507082 0.007264667
000190 76 5f a6 3c 26 ce 70 3c d8 cd 16 3c a8 9d 27 3b
       0.020309191 0.014697587 0.00920435 0.0025576148
0001a0 3c 01 5d 3a cc af ce 3c c0 9b 5e 3c 22 a0 dc 3a
       0.0008430665 0.02523031 0.013586938 0.0016832391
0001b0 9d 25 00 3a d6 3a 18 3c b8 14 16 3b 78 a0 11 3b
       0.00048884173 0.009291371 0.0022900533 0.002222089
0001c0 d5 7d 0a 3a 7c 58 0d 3c 57 a5 6d 3b f2 7b c8 3c
       0.00052830327 0.008627053 0.003626188 0.024473164
0001d0 d9 d3 0a 3b 5b da 87 3c e3 f6 4a 3c 41 0d e8 38
       0.00211834 0.016583612 0.012387964 0.00011065091
0001e0 9c f2 a4 3a 0f b6 86 3a c4 d6 c8 39 cf 85 b8 3a
       0.001258451 0.0010277646 0.00038306986 0.0014077964
0001f0 04 bc 84 3c ab 78 07 3b 24 f9 7e 3a d9 db b9 3c
       0.016202934 0.002067129 0.0009726456 0.02268784
000200 ac df 6d 3b b3 45 02 3d 50 96 40 3d a5 ad d1 39
       0.003629665 0.03180475 0.04701835 0.00039992962
000210 e1 eb d0 3b a7 69 eb 3a 65 85 7d 39 0d a1 db 3c
       0.006375775 0.0017960564 0.00024177654 0.026810193
000220 a7 ed ed 3a 0e b9 8f 3b 36 67 ea 3c dd 42 83 3b
       0.0018152491 0.004386074 0.028613668 0.0040057735
000230 95 e5 ed 3b 67 f2 1b 3b f9 34 0b 3c ef 04 06 3b
       0.0072600343 0.0023795606 0.008496516 0.0020449718
000240 d2 76 28 3d f7 32 3d 3b b5 64 3a 3c 33 75 fc 38
       0.04112894 0.0028869489 0.0113765495 0.000120381264
000250 b5 64 6b 3c f4 d8 f3 3c af 8a 30 36 d6 9d 32 3b
       0.014367272 0.029766537 2.6306768e-06 0.0027254722
000260 ee 8a 09 3b c4 36 a2 3b bb bd 9b 39 aa 86 01 3c
       0.002098735 0.004950376 0.00029705264 0.007905642
000270 27 03 1f 3b e8 4f 84 3b 5d 97 a7 3b 43 fd 82 3b
       0.0024263354 0.004037846 0.0051144795 0.0039974763
000280 f7 de bb 3c 52 5e 0c 3d b4 57 54 3d cf 04 ec 3c
       0.022933466 0.03426964 0.051841453 0.028810887
000290 b0 e8 2a 37 3c 2e 08 3c 96 0f 7e 3b 58 5b 13 3c
       1.0186966e-05 0.008311804 0.0038766614 0.008993946
0002a0 19 06 e6 3a f4 a7 34 37 8f ab b2 3b 47 33 1c 3a
       0.0017549425 1.0767941e-05 0.0054525803 0.00059585687
0002b0 ab da ba 3b ec d0 01 3d 39 7e ca 3b a9 bf 9c 3c
       0.005702337 0.031693384 0.0061795977 0.01913436
0002c0 4a 91 f6 04 06 bb 32 3c b7 83 e2 3a b6 d0 ba 3c
       5.796775e-36 0.010908848 0.0017281686 0.0228046
0002d0 e3 e7 5e 3b de 5e d9 3a c5 d1 ba 3b 67 16 ce 3a
       0.0034012727 0.0016584059 0.005701276 0.0015723229
0002e0 af 59 58 3c 8f 18 a0 3b fc 25 6b 3c d0 55 03 3c
       0.013204976 0.00488574 0.014352318 0.008016065
0002f0 5f d8 ab 3a 27 43 a0 3c 95 42 3f 3c 7a 1e 51 39
       0.0013110748 0.01956327 0.011673589 0.00019943147
000300 c8 5e bb 3b 32 eb 63 3b cd 69 ac 3c 7b 62 20 3c
       0.005718086 0.0034777639 0.021046543 0.009789105
000310 3a 62 30 3a 35 69 4d 3c ab f7 52 3a b3 af d6 3b
       0.0006728504 0.01253729 0.00080477697 0.0065517067
000320 32 55 94 3c 40 4e 18 3c ad c4 08 3c 74 85 0a 3b
       0.01810703 0.009296 0.008347672 0.0021136673
000330 fe 81 8b 3b b0 67 28 3a b7 7d 14 39 7e c6 11 3b
       0.0042574396 0.0006424142 0.00014161212 0.0022243555
000340 14 3e c5 3a 49 1f 6e 3b 75 c3 fb 3b ae c7 1c 3c
       0.0015048408 0.0036334565 0.0076832124 0.009569092
000350 5e 5d 08 3a 2e 06 58 3a 2a 12 0a 3a f1 51 b0 3a
       0.0005201901 0.0008240667 0.0005266989 0.0013452155
000360 3e 12 c8 3b 8e fd 79 3d 95 bd 8a 37 e3 66 c2 3c
       0.0061056903 0.061032824 1.6539163e-05 0.0237307
000370 2c 53 e9 3b f4 82 a2 3c 1e f3 05 3d 20 37 1e 3d
       0.0071205106 0.019837834 0.032702558 0.03862679
000380 ff 08 9f 3b 3b 66 81 3a 75 87 ec 3a 2a b1 c3 3a
       0.0048533673 0.0009872386 0.001804574 0.0014930118
000390 d6 78 02 3d fc 16 ae 3a b7 99 63 3c 04 00 00 00
       0.03185352 0.0013281996 0.013891629 6e-45
0003a0 75 c0 bb 3a cb 30 86 3b 85 5e 11 3d 72 96 6b 3b
       0.0014324324 0.004095172 0.03549053 0.0035947827
0003b0 d3 c0 ac 3a 0d 11 9a 3b 48 8e 11 3d 8b 90 01 3c
       0.0013180025 0.0047017396 0.03553608 0.007907997
0003c0 88 e7 e7 3c 1a 39 5f 3b 3a 61 e0 3b 1f 3a 46 3b
       0.028308645 0.0034061135 0.006847528 0.0030247045
0003d0 92 f2 c3 3a f4 6f 4f 3c 70 02 c4 3b 4a 82 25 3b
       0.0014949611 0.012660969 0.005981736 0.002525466
0003e0 9a d9 c3 3a 9e b1 b2 3a d4 90 7d 36 1c 05 5a 3c
       0.001494217 0.0013633256 3.778424e-06 0.013306882
0003f0 87 f9 57 3b 04 00 00 00 ec 8e fa 3b 10 cd 94 3c
       0.0032955126 6e-45 0.007646432 0.018164188

net.4.weight f4 [256, 256]
000000 11 ef 01 3d eb e9 c3 bc 06 ad 37 bb 07 33 b8 bb
       0.031722132 -0.023915252 -0.0028026714 -0.0056213173
000010 f6 51 0f 3a 05 bf b0 bd 7f 66 75 3d 7e a0 1e bd
       0.000546723 -0.08630184 0.0599122 -0.038727276
000020 44 2c f2 bd a8 e3 f6 bc c4 50 23 3d 86 53 12 bd
       -0.11824849 -0.030137852 0.039871946 -0.035724185
000030 0b d7 e0 3c b6 36 9b bc d1 da 8a bd 63 c1 0b 3d
       0.02744629 -0.018946987 -0.06780017 0.034119975
000040 24 65 b9 bd 64 c1 81 bd 65 1a 1a bd ee e2 89 3d
       -0.09052494 -0.063357145 -0.037622828 0.067327365
000050 81 90 21 be 9d 91 19 3b 4f 5f 67 3d d9 ab 8c bc
       -0.1577778 0.002343274 0.056487378 -0.017171787
000060 96 48 5e 3c 09 3b 1e 3d 7c 19 8e bd 93 0e 56 bd
       0.0135671105 0.03863052 -0.069384545 -0.052259993
000070 6e e5 81 ba 26 98 f4 bd a0 3d d0 ba a8 18 c6 bd
       -0.0009910294 -0.119430825 -0.0015887506 -0.096726716
000080 e5 3e ad bd df 50 91 bd 7c 51 91 3c 38 21 a0 bc
       -0.08459262 -0.07095503 0.01773905 -0.01954709
000090 8a 35 92 3b c5 cc 1b 3d 16 d3 05 bd 2a cc 5d 3c
       0.0044619488 0.03803708 -0.03267201 0.013537446
0000a0 9e b1 2d bd b9 30 83 bd e1 af 78 bc 0e ee 33 3d
       -0.042405717 -0.064057775 -0.015178652 0.0439282
0000b0 5f ff b2 3c 60 ff 72 3c 39 45 e3 bd 57 77 ae bc
       0.021850286 0.014831394 -0.110971875 -0.02129714
0000c0 3c 80 6c 3b 99 bb 13 3d 09 ff 8e bc e5 19 a5 bd
       0.0036087176 0.03606758 -0.017455595 -0.080615796
0000d0 09 fc 19 3d 5c 08 af bd d6 96 09 3c cd 8c 66 bc
       0.037593875 -0.08546516 0.0083977785 -0.014071655
0000e0 e2 c8 58 3c bb 70 98 bc a8 d8 74 bd 13 67 55 bd
       0.013231488 -0.018608442 -0.059776932 -0.052100252
0000f0 96 ea 3e 3d b7 c5 2e bd 88 b2 f3 3c d2 ab 86 bc
       0.046610437 -0.042669024 0.029748216 -0.016439352
000100 f3 44 10 bd 36 ee ab bd d9 f6 b5 b9 24 28 80 bc
       -0.035222005 -0.083950445 -0.00034706926 -0.01564414
000110 ab 4e 49 bd 2c ab 39 bd e1 0c ea bb 0d 0e 81 bd
       -0.04914729 -0.045329258 -0.0071426486 -0.06301508
000120 2e dc 0a bd 55 70 b2 bb 36 5c af bd 2e 86 c3 bc
       -0.033901386 -0.00544552 -0.0856251 -0.023867693
000130 2b ad 94 bd c1 9a e3 3c 88 94 0a be da 18 91 3a
       -0.07259592 0.027783753 -0.13533223 0.0011070028
000140 e7 a5 d8 3c 8b 49 92 bd 5c c2 95 bd ef a6 94 ba
       0.026446296 -0.071429335 -0.07312462 -0.0011341254
000150 7a 6f 1d bd ed d0 16 3c b9 24 36 bd 9c 06 16 3d
       -0.03843639 0.009205085 -0.044468615 0.036627397
000160 6c 44 01 3d 61 6b a7 3b 2b db 40 bd fb 77 aa 3d
       0.031559393 0.005109236 -0.047084015 0.08323666
000170 bc 35 89 bd b6 44 9f bc e8 ed 27 bd 0f a7 4f bb
       -0.06699702 -0.019441944 -0.04099837 -0.0031685268
000180 85 a6 2b 3d e3 81 ab bd 29 05 de bd 60 5e 2c bc
       0.041906852 -0.08374383 -0.10840828 -0.010520548
000190 d4 ad 8a 3b ee 5a 1f 3d ed c5 52 bd 20 ab 8f 3c
       0.0042321477 0.038905077 -0.051458288 0.017537653
0001a0 a9 5c 27 bc e8 1b 9e bb d9 09 24 be bf 7a d2 3c
       -0.010214963 -0.004825104 -0.16019382 0.025693296
0001b0 f2 af b6 3c d8 a9 5b bd 7d 20 93 3b 53 8f eb b9
       0.022300694 -0.053628772 0.004489957 -0.00044929478
0001c0 3c 70 ea 3c 5a 0d 0e bd 21 95 1a bd f7 c0 54 3c
       0.02861797 -0.0346807 -0.037739877 0.0129854595
0001d0 2b 10 1f be 27 79 7c 3d e5 78 25 3d 1f e7 4b 3d
       -0.15533511 0.061638977 0.040398497 0.04978096
0001e0 43 eb 5d 3b dd 2b a9 3b e4 fc f2 bc 0d b7 dc 39
       0.003386215 0.0051626996 -0.029661603 0.00042098053
0001f0 26 cf 0d bb 5d f1 13 3d 11 7f 35 bd 63 70 bf 3b
       -0.0021638363 0.036118854 -0.044310633 0.005842255
000200 e0 0b 3d 3d 83 29 98 bd de 54 cf bd 5a 62 f8 bc
       0.046153903 -0.07429793 -0.10123609 -0.030320335
000210 2f 7c 07 bd 25 24 07 be c3 fe 6e 3c e5 cc 0b bd
       -0.033077415 -0.13197382 0.014587107 -0.03413095
000220 f7 35 cf 3b 88 86 c8 3c 74 03 29 3b 70 a7 ce bd
       0.006323572 0.024478212 0.0025789412 -0.1009053
000230 b1 ac dc bc 36 32 96 bd b5 fc 98 3c 0c 7e e5 3c
       -0.026937814 -0.07333796 0.018675188 0.028014205
000240 f0 98 50 bd 77 58 cc bc 08 f3 2c bd 6e 9d b8 bd
       -0.050927103 -0.024944527 -0.04222396 -0.09014402
000250 1b 29 66 3c 21 27 5d 3c f8 4f 72 bd 02 52 19 bd
       0.014047886 0.013498099 -0.059158295 -0.037431724
000260 65 0e 53 3c 6d 65 06 3a c1 06 ac 3c f6 d5 c5 bc
       0.01288185 0.0005126808 0.020999314 -0.024149876
000270 3d 9a 8a 3b 3c 1a a5 bd 44 97 e9 3c 0b f8 6b 3d
       0.0042298124 -0.080616444 0.028514512 0.0576096
000280 9d 5c 3a bd 71 43 80 bc 56 c2 50 bd 75 a6 79 3c
       -0.04549848 -0.015657159 -0.050966583 0.01523744
000290 08 0f b2 bd 37 e4 9b bd 47 b3 93 bd dc 44 48 bc
       -0.08694273 -0.07611888 -0.07211929 -0.012223449
0002a0 e6 4b fe ba 12 5f 8e bd 07 c2 b5 bd b6 04 4e 3c
       -0.0019401282 -0.06951727 -0.088748984 0.012574365
0002b0 84 c7 ea 3b cb 69 a1 bc 81 96 0d bc 98 47 d5 3b
       0.0071648974 -0.019703766 -0.00864184 0.006508779
0002c0 b5 fe 6c bd c5 73 b1 3c c8 d8 ff 3b ff 00 49 bd
       -0.057860095 0.021661649 0.0078078248 -0.049073216
0002d0 99 3b 9f bd 9b 15 cc bb 92 bc 95 ba 6f 71 07 3d
       -0.07775039 -0.0062281615 -0.0011423996 0.033067163
0002e0 54 fe 70 3d 51 7f 45 bd 79 e7 53 bc 30 77 5f 3d
       0.058836296 -0.04821712 -0.012933605 0.054557025
0002f0 2b a4 ef ba bf ac b0 bd 53 be bc bd c6 11 28 3d
       -0.0018283179 -0.08626699 -0.09215989 0.041032575
000300 92 b0 e6 3c 1f b2 00 ba 2a 95 3c 3d c5 6d 04 bb
       0.028160367 -0.00049093546 0.04604069 -0.002020703
000310 4c e4 62 3c a5 a9 88 bd c2 0d 65 3c f4 1e 24 b9
       0.0138483755 -0.06672982 0.013980331 -0.0001565179
000320 ed 04 7a bd 7d 72 aa 3c ad f4 6f 3c 4a a5 0a 3d
       -0.061039854 0.020806545 0.014645738 0.03384904
000330 18 b8 1f bc a2 81 34 3d 0c a0 d3 bb 80 f8 84 3d
       -0.009748481 0.04406894 -0.006458288 0.0649271
000340 16 ed 79 bd b0 dd 0f bd ae 01 a7 bc 77 be 9d 3c
       -0.06101712 -0.035123527 -0.020386543 0.01925586
000350 e7 70 7c bd 45 e7 32 bc d9 73 df 3c b5 54 86 bb
       -0.06163111 -0.010919397 0.02727692 -0.0040994533
000360 7a 3f d1 3c 07 f9 86 bd 69 36 18 bd c4 41 d5 bc
       0.025542963 -0.06590467 -0.037161265 -0.026032336
000370 3a 16 2b 3d fb ff 9f bc ac b5 3e bd 78 a0 00 bd
       0.041769244 -0.01953124 -0.046559975 -0.031403035
000380 f5 51 c2 bc 4b 44 89 3c 20 85 bd 3b 4b 41 62 3d
       -0.02372072 0.016756197 0.005783692 0.05523805
000390 51 12 f6 bc ac 4f fe bc d1 a5 01 3d 1c 89 52 bd
       -0.03003803 -0.03104385 0.031652275 -0.05140029
0003a0 32 70 32 3c 8c 26 01 3d 1a 9f 21 bd ec 81 f7 bb
       0.010891007 0.0315309 -0.03945837 -0.0075533297
0003b0 17 d1 2b 3d ff 95 a8 bc 7a 61 f6 bd 33 fe 7f 3d
       0.04194745 -0.020579336 -0.12030311 0.062498283
0003c0 da 03 cd bc ac 8a e8 3c 5a a5 5b 3a 75 5f ff 3c
       -0.02502625 0.028386436 0.00083788263 0.031173447
0003d0 49 12 83 3d 47 02 ef bc a4 41 03 bd e6 14 12 3c
       0.06399972 -0.02917589 -0.03204502 0.008916115
0003e0 95 60 7c 3c 01 da 0c bd 73 55 5f 3d c8 49 66 3a
       0.015403886 -0.034387592 0.05452485 0.0008784798
0003f0 b7 b2 ef 3c b4 75 20 3e 84 94 37 bd f7 c8 ca bd
       0.029260023 0.156699 -0.04481937 -0.09901612
