wallaroo-features/onnx-multi-input-demo/models/multi_io.onnx (onnx, 2489 bytes, 6 tensors)

fc1.weight f4 [20, 15]
00000000: b228 7c3e e097 003d 00a8 8e3b 94d9 523e
00000010: 4a6c 453e 4057 633c 68af 763d bfec 20be
00000020: 8a60 30be 7ac3 26be 4e54 6dbe bb49 823e
00000030: a4f4 a03d 00c0 bf37 ba69 11be ce01 83be
00000040: a652 783e 1a63 693e a222 09be fc64 ea3d
00000050: c0a3 253d 2c1c debd f693 e2bd 5c58 363e
00000060: f20d efbd 5e4e 543e b082 b2bd 3038 d83d
00000070: 826e 5fbe 148d 123e aba3 4ebe c81c 483e
00000080: ac51 58be f4b6 a43d 0f45 0cbe c0a7 50be
00000090: 12f2 52be 74b9 e3bd e41b e93d 7e1c 39be
000000a0: 6312 1dbe c41e 83be f499 63be e442 403e
000000b0: d6e4 683e 0a72 47be c0ba c73b 0459 63be
000000c0: 80a8 e83d 56aa 3fbe e67f 22be 2c7b b33d
000000d0: 18ae 4ebe 3084 54bc a134 51be 0291 1fbe
000000e0: 4e94 043e 5643 363e b0d9 8f3c d0c4 66bd
000000f0: 081d 2f3d fa32 dfbd 67e7 5bbe 56ea 273e
00000100: 9365 813e 2848 b73d 28ef 373d 3869 49bd
00000110: 9275 3fbe e828 94bc 5a32 343e d056 99bc
00000120: 2e84 16be deb6 a5bd f0a8 82be 9ad0 233e
00000130: 78b4 483d c2af 103e 4a11 21be 7818 913d
00000140: 94a5 323e f4cf 403e bc0c 993d a0f9 e2bd
00000150: 6433 a13d 6c1b c33d e80d d13d 7cd1 60be
00000160: 0054 da39 c0eb ad3c fe91 673e 6d8a 76be
00000170: ac90 c1bd ce89 31be c009 c13d e416 a8bd
00000180: 4b7d 63be c06e a83d 4068 ab3c 922d 603e
00000190: 8cf6 a73d c04f 613e 4ad0 32be d4c9 e2bd
000001a0: dcd9 273e 003d 863d 8032 113d ee2a 79be
000001b0: 307a b63c d692 8abd c842 513d 1800 623d
000001c0: 28a0 383d 3b45 16be 0e4e eebd bd1e 13be
000001d0: 18da 0f3e ccd2 9c3d 76a6 1cbe 8082 ba3c
000001e0: 7004 b33c e4d8 183e f884 75bd d436 373e
000001f0: c656 34be dad0 1c3e a88d bc3d c0ca 22be
00000200: 3c9d ad3d c00b c43b 108c 9d3d 5024 42bd
00000210: eab6 2f3e fdb0 803e 00b0 7c3a 80a0 bc3d
00000220: 50a1 af3c 3a6e f1bd 7cf9 12be 9c2d 21be
00000230: 0083 813c 4a78 cfbd ae42 0abe 1495 5ebd
00000240: 984d 543d 58a0 073e d475 633e 787e 6cbe
00000250: 6ac2 18be e80e 503e cc0c e3bd 2476 c3bd
00000260: c046 933d 6cdd 53bd 9c18 603e 6e59 223e
00000270: b07d e83c 12c7 40be 8014 ffbd aaab 2ebe
00000280: 8c82 d63d 964f 273e c46e 2c3e ea62 7b3e
00000290: f21c 523e fd6f 813e d06c d33c 7cde b63d
000002a0: c003 d6bb 6c1b df3d 0a89 273e bc03 65bd
000002b0: d613 793e 0407 873d f45c 40bd 32ef e5bd
000002c0: 0037 6fbe 6017 6a3d 9018 3cbc 0467 45bd
000002d0: e6a8 5e3e 38ab 94bc 3860 46be ac7b a83d
000002e0: 6895 d1bc 2b82 803e e6db 76be 8228 7bbe
000002f0: d8f0 673d d883 7dbd d014 1fbe 5c48 8ebd
00000300: f875 0cbd bade 43be e23e 38be 103f c8bc
00000310: 4ee1 2ebe 208e 413c 002c 36bc 57a2 79be
00000320: 4094 54bd 40ba a23d bcb4 6d3e 523b 1e3e
00000330: f868 90bd 60e4 cbbc cc78 07be e0ee 1a3e
00000340: 0485 63be 00b9 acba 4bc4 36be e442 80bd
00000350: 5ed9 cfbd 4891 1d3d 0085 f9ba 0007 6a3d
00000360: 40d3 5bbc fc4f 03bd b47d cb3d 16b7 543e
00000370: aa06 21be 5088 d3bd 2431 653e aa0e 2d3e
00000380: ef4b 55be ecea 633e a0f9 4cbd 7cfa 14be
00000390: 501b d63c e88a 9bbc 8451 e1bd c82c 553d
000003a0: 1cad 0bbe 5bce 55be c011 6cbc 5c94 523e
000003b0: 7d19 61be 000c 623b 0ab8 4f3e ec06 2f3e
000003c0: 2897 593e 0b4a 17be 0453 2e3e f011 d23d
000003d0: 983e 473e 0084 803c 8f82 813e 84ef 14bd
000003e0: 8ce2 ae3d 122b 5d3e b074 30be f8ee 2d3e
000003f0: 174d 39be 54ed ec3d 8226 653e 604d 393c
0.24624899 0.03139484 0.0043535233 0.20590812 0.1927959 0.0138757825 0.060225874 -0.15715311
-0.17224327 -0.16285506 -0.23176691 0.25446877 0.078591615 2.2858381e-05 -0.14200488 -0.25587314
0.24250278 0.2279171 -0.13392118 0.114450425 0.040439367 -0.10845217 -0.110633776 0.17807144
-0.11672582 0.2073302 -0.08716333 0.10557592 -0.21819499 0.1431163 -0.20179622 0.19542229
-0.21124905 0.08042708 -0.13698219 -0.20376492 -0.20600155 -0.11119357 0.11382273 -0.18077275
-0.15339045 -0.2560941 -0.22226697 0.18775517 0.22743544 -0.19477096 0.0060952604 -0.22201926
0.11360264 -0.18717322 -0.15869102 0.087637275 -0.20183599 -0.012970969 -0.20430233 -0.1558266
0.12947199 0.17799124 0.017559856 -0.05634004 0.042752296 -0.10898395 -0.21474992 0.16397986
0.25272807 0.089493096 0.04490581 -0.04917261 -0.18697193 -0.018085912 0.17597333 -0.018718153
-0.1469886 -0.0809152 -0.25519514 0.15997544 0.049000233 0.14129546 -0.15729252 0.07084745
0.17445976 0.18829328 0.07473132 -0.110827684 0.0787113 0.09526715 0.102077305 -0.21954912
0.00041642785 0.021230578 0.22614285 -0.24076243 -0.09451422 -0.17337725 0.09425688 -0.08207491
-0.22215764 0.08224249 0.020923734 0.21892384 0.08201322 0.22003078 -0.17462268 -0.11073652
0.163917 0.065546036 0.03544855 -0.24332783 0.02227506 -0.06766288 0.05108908 0.05517587
0.045074612 -0.14674847 -0.116359815 -0.14367194 0.1404804 0.07657394 -0.15297875 0.022767305
0.021852702 0.14926487 -0.059941262 0.17892009 -0.17611226 0.15314046 0.09206706 -0.15897655
0.08477256 0.005982846 0.076927304 -0.04739791 0.1715962 0.2513503 0.0009639263 0.092103004
0.021439224 -0.11788602 -0.14352983 -0.15740055 0.015809536 -0.10130365 -0.13501999 -0.05434139
0.05183181 0.1324476 0.22212917 -0.23095119 -0.14917913 0.20318186 -0.11086425 -0.09544018
0.07191229 -0.051724836 0.21884388 0.15854427 0.028380245 -0.1882594 -0.12455082 -0.17057672
0.104741186 0.16338953 0.16839129 0.24549451 0.20518854 0.25280753 0.025808722 0.08929154
-0.0065312088 0.10893902 0.1636087 -0.055911765 0.24323973 0.06593135 -0.046963647 -0.112272635
-0.23360825 0.0571512 -0.0114804655 -0.048193946 0.21744117 -0.01814805 -0.19372642 0.082267135
-0.025583938 0.2509931 -0.24107322 -0.24527171 0.05662617 -0.061893314 -0.15535283 -0.06947395
-0.03429219 -0.19127932 -0.17992738 -0.024444133 -0.17078134 0.01181367 -0.011118889 -0.24378334
-0.051899195 0.079456806 0.23213476 0.15452316 -0.07051271 -0.024889171 -0.13229674 0.15130186
-0.2221871 -0.0013177693 -0.17848317 -0.062627584 -0.101488814 0.03846863 -0.001903683 0.057135582
-0.013417065 -0.0320587 0.09936085 0.20772967 -0.15725198 -0.10328734 0.22382027 0.16900125
-0.20829748 0.22257584 -0.05004275 -0.14548677 0.02613607 -0.018987134 -0.11001876 0.05204466
-0.13640255 -0.208795 -0.014408529 0.20564407 -0.2198238 0.0034492016 0.20285049 0.17092484
0.21249068 -0.14774339 0.17023855 0.102573276 0.19457471 0.015687943 0.2529492 -0.036361232
0.08539304 0.21598461 -0.17232013 0.1698569 -0.18095814 0.11568704 0.22377971 0.011309952

fc1.bias f4 [20]
00000000: 9efa 36be 0008 5e3d fa96 99bd fcc7 c33d
00000010: 14da bc3d c4cf e23d 002f afbd d07c 91bc
00000020: 58bf 6b3d 786d a33d dcaa 153e c80c 973d
00000030: 300d 9fbc 2681 2dbe 92b0 1b3e 600a 783c
00000040: 348a 133e 9001 b7bd 30c4 b73d 10f7 e93d
-0.1786904 0.05420685 -0.074994996 0.09559628 0.092212826 0.110747844 -0.085538864 -0.01775971
0.057555526 0.07979864 0.14615959 0.07375485 -0.019415468 -0.16943797 0.15204075 0.015139192
0.14408189 -0.08935845 0.08972967 0.114240766

fc2.weight f4 [3, 20]
00000000: 2647 1c3e 143e 46bd b084 c13d bc06 f43d
00000010: 80af a83d c678 dcbd 2af8 84bd 8077 f1ba
00000020: a003 bfbb 542e edbd 3243 143e f411 1abe
00000030: fef8 463e 90bc 6f3d 00a0 733b 0f4c 04be
00000040: 48ea bebd e8aa 143d a0b8 31bd cd75 eebd
00000050: c086 833d a2ef 643e 9c43 a23d 604f 4c3d
00000060: 64a0 023e 4020 443b 30cf 04bd d662 643e
00000070: 20e0 a1bb 4a1c 563e 204c 30bd 3848 173d
00000080: decc d0bd dee0 13be 43cf 2cbe 900f 6f3d
00000090: 40cb 3dbe 70af e53c 74dd a63d ba1a 34be
000000a0: ac11 3ebe c07c f1bc 86e3 c9bd d023 09be
000000b0: 401f d6bb 49a0 4bbe 87e1 49be a28b 3f3e
000000c0: 94b6 0bbd c466 58be 401c 08be acd5 193e
000000d0: 700f c5bd c01f 51bd 30ca 06bd 20fb 80bb
000000e0: 20a2 ec3c ee8a 413e 2c9f 5dbe 40a8 573e
0.15261516 -0.048399046 0.09449136 0.11915347 0.08236599 -0.10765223 -0.06492646 -0.0018422455
-0.0058292896 -0.11581102 0.14478758 -0.15045911 0.1943092 0.058529437 0.0037174225 -0.12919639
-0.09322029 0.0362958 -0.043388963 -0.116435625 0.06422186 0.22357038 0.07923052 0.049880385
0.12756497 0.002992645 -0.032424152 0.22303328 -0.004940048 0.20909229 -0.04304135 0.036934108
-0.10195325 -0.14441249 -0.16875939 0.05836445 -0.18534565 0.028037757 0.081477076 -0.1758832
-0.18561429 -0.02947843 -0.0985785 -0.13392568 -0.006534487 -0.19885363 -0.19714938 0.1870561
-0.034109667 -0.21132952 -0.13292027 0.15022916 -0.09622085 -0.05105567 -0.032907665 -0.0039361864
0.028885901 0.18900654 -0.2164275 0.21060276

fc2.bias f4 [3]
00000000: 00d5 e7bc 4214 35be f8f6 88bd
-0.028299809 -0.17683509 -0.066877306

fc3.weight f4 [2, 20]
00000000: a2b7 f2bd 56f2 b9bd f212 ccbd 12ef 003e
00000010: e04d 83bd acc8 d13d 2881 093e e043 b53c
00000020: b6c5 2cbe bc02 d03d 48c5 3a3e f067 dc3c
00000030: b03c 1dbe 9aee 4e3e 98bf 72bd c06e fc3d
00000040: e857 10be 8695 a1bd d259 263e 4ca0 35bd
00000050: 2234 153e 6820 b5bc 36ab a5bd 4e7d 1d3e
00000060: 087a 54bd 7003 273d cc95 c4bd 183b 7f3d
00000070: 53ef 58be 668d 573e 5874 383d 082e 163d
00000080: 0006 19bc 06c8 5d3e 2bc0 cabd 80ce cebc
00000090: c09b 823c 8638 2b3e a807 54be 14e9 923d
-0.118514314 -0.09079425 -0.09964551 0.12591198 -0.06411338 0.10243353 0.13428175 0.022127092
-0.16872296 0.101567715 0.1823932 0.02690503 -0.15355182 0.20208207 -0.05926475 0.123258114
-0.14096034 -0.078898475 0.16245201 -0.044342324 0.14570668 -0.022110179 -0.080892965 0.15379831
-0.05187419 0.040774763 -0.09598884 0.062312216 -0.21185045 0.21050033 0.04503283 0.036664993
-0.009339809 0.21658334 -0.098999344 -0.025244951 0.015943408 0.1672078 -0.20706046 0.071733624

fc3.bias f4 [2]
00000000: e9ac 24be 9814 183d
-0.16081585 0.037129015
