wallaroo-model-cookbooks/imdb/embedder.onnx (onnx, 320640 bytes, 1 tensors)

sequential_1/embedding_1/embedding_lookup/661:0 f4 [10000, 8]
-0.007221615 -0.013470239 0.00025790045 0.020093909 -0.032483965 -0.02317055 0.029898038 -0.027048908
-0.09737177 -0.018675534 -0.021427866 -0.023960328 0.05231494 -0.01651352 -0.023147732 -0.037169464
0.03876482 0.01971182 -0.009669548 -0.077141754 0.016946923 -0.05823752 -0.03196548 0.07584719
-0.056484047 -0.105492264 -0.010935254 -0.04456361 -0.02513372 -0.060883824 -0.0060249167 -0.028976964
-0.029251559 -0.030844986 -0.005785351 -0.037515737 -0.034320436 0.02509182 -0.015330634 -0.11206331
0.053378467 -0.03134945 0.017410258 -0.03830151 -0.07121424 0.01471029 0.054599334 -0.039475225
0.017756378 -0.121775106 0.04235272 0.070994504 -0.03703773 -0.08202404 -0.027364885 0.043080628
-0.019472748 -0.057072915 -0.0012597123 -0.027919492 0.074880116 0.030412154 0.03295805 -0.013188002
0.13908012 0.047857754 -0.020779967 -0.015707225 0.034439653 -0.004308284 0.0106043415 0.004215905
-0.09198293 0.058140095 0.005726956 0.044206474 -0.03993388 -0.029288199 -0.14701998 0.06115369
-0.049524404 0.019997546 -0.041302983 -0.018463751 0.024927612 -0.08525602 0.046905935 0.0063512013
0.033123467 -0.0734799 -0.08493023 -0.064982444 -0.037841048 -0.05326858 0.009704542 0.03661935
0.032621108 0.078736246 0.03213008 0.16043952 0.0151642 0.035115242 0.010056575 -0.0755122
0.049284525 -0.0586236 0.114114545 0.0041051465 -0.039722186 0.12275421 0.028863858 0.01822011
0.038691394 -0.0234855 0.032949585 -0.08163877 -0.064744845 0.013873577 -0.020319724 0.013417971
0.042628217 -0.07556567 0.05375644 0.027186343 -0.05399095 -0.0037120902 0.024174556 0.0069702133
0.00072121667 0.075294085 -0.0026098597 -0.026577411 0.0916759 0.06672819 -0.017773587 -0.07301118
-0.021710442 -0.0018728124 0.00064603926 0.0759055 0.00637104 0.0024955273 -0.02332227 -0.0013394874
-0.022828022 -0.010955889 0.045564923 -0.04175206 -0.06474264 0.07515496 0.0015473688 0.03813233
-0.009791299 0.12449002 -0.031838823 0.05630419 0.024609746 -0.0061063673 -0.060700748 -0.027050711
-0.0049716774 -0.022853509 0.040345114 -0.0062472494 -0.02465536 0.02551072 0.0057175895 0.010948687
0.073387414 -0.03695747 0.04277939 0.031804815 0.06988486 -0.010182699 0.056129403 0.052832104
-0.12532945 0.14339255 -0.020972371 0.086058624 -0.12186069 -0.12982589 -0.022914741 0.11164971
-0.0039959196 0.02777049 0.034959532 -0.047384176 0.056013733 -0.012095454 0.07562933 0.07102453
0.044072244 -0.02813604 -0.053256664 -0.08198482 0.08749415 -0.05352032 0.00090324716 0.04866106
0.020203713 -0.02782328 0.09425502 -0.045179382 -0.039438494 -0.008718826 0.0043443637 -0.10725114
0.043481547 0.00930428 -0.0031615272 0.062300578 -0.10907567 0.05719201 -0.05192004 -0.021699397
0.06437776 -0.04200887 0.046364658 0.055429894 -0.030158212 0.15085147 0.076949626 -0.03789991
0.028692823 0.001992728 -0.014371133 0.06169359 -0.05153225 0.009349933 -0.006556125 -0.018526575
0.10992737 -0.0082322 -0.0030960934 0.14228265 0.0684567 -0.0536063 -0.001228845 0.040566783
-0.049525116 -0.11463233 -0.009043755 -0.056178443 0.12070096 0.12192327 0.005730167 0.0055921297
0.05662727 0.042446256 0.05170827 -0.041299112 0.023362985 0.017676186 0.004048825 -0.02766414
00000000: 4ca3 ecbb 47b2 5cbc d036 8739 fb9b a43c
00000010: e80d 05bd 2ad0 bdbc bbec f43c ac95 ddbc
00000020: da6a c7bd 6ffd 98bc 7e89 afbc 7348 c4bc
00000030: 3148 563d 5d47 87bc 50a0 bdbc 023f 18bd
00000040: dcc7 1e3d af7a a13c 066d 1ebc 7ffc 9dbd
00000050: 46d4 8a3c 778a 6ebd 3cee 02bd c655 9b3d
00000060: d15b 67bd 540c d8bd c829 33bc 5588 36bd
00000070: 3be5 cdbc 5161 79bd aa6c c5bb 1961 edbc
00000080: f7a0 efbc a0ae fcbc 0b93 bdbb 1aaa 19bd
00000090: 9693 0cbd 5c8d cd3c 572d 7bbc 7381 e5bd
000000a0: 61a3 5a3d 4868 00bd f59f 8e3c 0be2 1cbd
000000b0: c5d8 91bd 6e03 713c 8da3 5f3d c6b0 21bd
000000c0: d375 913c 3a65 f9bd 0c7a 2d3d 9165 913d
000000d0: e0b4 17bd 38fc a7bd 532c e0bc 5075 303d
000000e0: 5085 9fbc 4ac5 69bd ee1c a5ba 6bb7 e4bc
000000f0: bf5a 993d e922 f93c 05ff 063d 7d12 58bc
00000100: 056b 0e3e 7e06 443d c03a aabc 70ac 80bc
00000110: 9810 0d3d 812c 8dbb d5bd 2d3c 9325 8a3b
00000120: 8c61 bcbd 4f24 6e3d 30a9 bb3b d911 353d
00000130: b591 23bd ceed efbc 688c 16be 4b7c 7a3d
00000140: 1ada 4abd e5d1 a33c 512d 29bd 4b41 97bc
00000150: fe34 cc3c b59a aebd 7020 403d bd1d d03b
00000160: 79ac 073d a17c 96bd e7ef adbd 8415 85bd
00000170: 37ff 1abd 2830 5abd cdff 1e3c 2cfe 153d
00000180: b69d 053d 7840 a13d d59a 033d 424a 243e
00000190: 4473 783c 00d5 0f3d 55c4 243c 24a6 9abd
000001a0: 92de 493d 4d1f 70bd e3b4 e93d 7784 863b
000001b0: bbb3 22bd 8f66 fb3d e673 ec3c 5742 953c
000001c0: de7a 1e3d aa64 c0bc 25f6 063d 3a32 a7bd
000001d0: f298 84bd 004e 633c 8d75 a6bc 0dd7 5b3c
000001e0: ed9a 2e3d 2dc2 9abd b62f 5c3d e5b5 de3c
000001f0: 9d25 5dbd 8a46 73bb b809 c63c 6366 e43b
00000200: 0810 3d3a c933 9a3d 2e0a 2bbb dfb8 d9bc
00000210: 93c0 bb3d caa8 883d ea99 91bc e386 95bd
00000220: 19da b1bc 2879 f5ba f65a 293a 5874 9b3d
00000230: 28c4 d03b 008c 233b 580e bfbc bd91 afba
00000240: d501 bbbc 5480 33bc 49a2 3a3d 3504 2bbd
00000250: ca97 84bd d8ea 993d 15d1 ca3a a530 1c3d
00000260: af6b 20bc a0f4 fe3d 6d69 02bd 399f 663d
00000270: 619a c93c ec17 c8bb 59a1 78bd 7499 ddbc
00000280: 74e9 a2bb 4837 bbbc eb40 253d bab5 ccbb
00000290: 0afa c9bc dcfb d03c 9e5a bb3b 1f62 333c
000002a0: 244c 963d b760 17bd 7139 2f3d c445 023d
000002b0: cb1f 8f3d 56d5 26bc f2e7 653d 7a66 583d
000002c0: 5d56 00be 7fd5 123e 40ce abbc 813f b03d
000002d0: 1992 f9bd 14f1 04be b2b7 bbbc 9aa8 e43d
000002e0: 34f0 82bb f07e e33c ba31 0f3d e915 42bd
000002f0: a86e 653d 032c 46bc 8de3 9a3d 4f75 913d
00000300: 1985 343d 8d7d e6bc a923 5abd a8e7 a7bd
00000310: 2230 b33d 2038 5bbd e4c7 6c3a d250 473d
00000320: 4282 a53c a6ed e3bc c708 c13d 040e 39bd
00000330: 428a 21bd 68d9 0ebc 2a5b 8e3b 7ca6 dbbd
00000340: b519 323d fb70 183c a031 4fbb e42e 7f3d
00000350: 1163 dfbd 2b42 6a3d 1caa 54bd efc2 b1bc
00000360: 7dd8 833d 7e11 2cbd dee8 3d3d 750a 633d
00000370: 5b0e f7bc cf78 1a3e c497 9d3d f03c 1bbd
00000380: 360d eb3c 6e98 023b e774 6bbc 6bb2 7c3d
00000390: 7b13 53bd 7630 193c c3d4 d6bb 0bc5 97bc
000003a0: 9a21 e13d 59e0 06bc d4e7 4abb 8bb2 113e
000003b0: 0733 8c3d 4892 5bbd 3211 a1ba 5b29 263d
000003c0: d9da 4abd 5bc4 eabd 422c 14bc 5e1b 66bd
000003d0: 1132 f73d e8b2 f93d 20c4 bb3b 2f3e b73b
000003e0: fff1 673d 20dc 2d3d 0dcc 533d 4229 29bd
000003f0: bb63 bf3c a6cd 903c 01ac 843b e89f e2bc
