wallaroo-model-cookbooks/imdb/sentiment_model.onnx (onnx, 3811 bytes, 1 tensors)

sequential_2/dense_1/MatMul/ReadVariableOp:0 f4 [800, 1]
0	0x3e39918f	0.18121932
1	0x3e9da832	0.30792385
2	0xbec9aba6	-0.3938877
3	0xbe18ba2f	-0.14914773
4	0xbf23a5f4	-0.639251
5	0xbebfcae0	-0.3745947
6	0xbf15cc07	-0.58514446
7	0x3e69ecd8	0.22844255
8	0xbeb0f879	-0.3456457
9	0x3e1695b4	0.14705545
10	0xbec7c937	-0.39020702
11	0x3f08e582	0.534752
12	0xbf236226	-0.6382164
13	0xbf193b1e	-0.5985583
14	0xbeb3c77f	-0.3511314
15	0x3f0bafc2	0.5456506
16	0xbecdad1b	-0.40171131
17	0x3dbee235	0.09320489
18	0xbedbea37	-0.4295213
19	0x3eec02ea	0.46095973
20	0xbf090629	-0.53525025
21	0xbf303687	-0.688332
22	0xbf04c43a	-0.5186192
23	0x3e6ed389	0.23322882
24	0xbf0c5979	-0.54824024
25	0x3d976d71	0.07393921
26	0xbf0c4177	-0.5478739
27	0x3ef1acbe	0.47202104
28	0xbe4dfa2a	-0.20114961
29	0xbf0c03de	-0.546934
30	0xbf035e7c	-0.51316047
31	0x3ef42ea9	0.4769185
32	0xbead146c	-0.33804643
33	0x3ee4b145	0.44666496
34	0xbe916129	-0.2839444
35	0x3f0ecffe	0.5578612
36	0xbeaaec48	-0.33383393
37	0xbed602b4	-0.41798937
38	0xbee0f5bb	-0.43937477
39	0x3ea57c6f	0.32321498
40	0xbedb4c45	-0.42831627
41	0x3f047a6f	0.5174932
42	0xbec40776	-0.38286942
43	0x3ef76bc7	0.48324415
44	0xbf310af7	-0.69157356
45	0xbecbbfff	-0.3979492
46	0xbedbf2f5	-0.429588
47	0x3ebc0f50	0.36730433
48	0xbf258524	-0.6465628
49	0x3ebc50be	0.3678035
50	0xbecac101	-0.39600375
51	0x3d53c71e	0.051703565
52	0xbea22138	-0.3166597
53	0xbe96330c	-0.2933582
54	0xbf02adbc	-0.5104635
55	0x3e433d61	0.19066383
56	0xbef24156	-0.47315472
57	0x3ed5afc3	0.41735658
58	0xbea30c1c	-0.31845176
59	0x3eadeb84	0.33968747
60	0xbe9b1052	-0.3028589
61	0xbe92db68	-0.2868302
62	0xbeee2ff7	-0.4652097
63	0x3f02eb08	0.5113988
64	0xbe79893f	-0.24368761
65	0x3dc5da24	0.09660748
66	0xbee0de07	-0.43919393
67	0x3e3d11af	0.18463777
68	0xbeb57c3a	-0.3544634
69	0xbe94cff1	-0.29064897
70	0xbe9f244f	-0.3108239
71	0x3d83130a	0.06400116
72	0x3edf60d9	0.43628576
73	0xbd351ade	-0.044215076
74	0xbe446579	-0.19179334
75	0x3f1ca433	0.6118805
76	0x3d58ecd7	0.052960243
77	0xbf0fb40d	-0.5613411
78	0xbecf64a7	-0.4050648
79	0x3f09ff85	0.53905517
80	0xbeca4695	-0.39506975
81	0x3e473b9c	0.19456333
82	0xbe3e7d10	-0.18602395
83	0x3e880319	0.26564863
84	0xbe979921	-0.29609016
85	0xbe8d21c9	-0.2756484
86	0xbee09a54	-0.43867743
87	0x3ed75bbd	0.42062178
88	0xbec0c8be	-0.37653154
89	0x3e879201	0.2647858
90	0xbe9cf9dd	-0.3065938
91	0x3ed5b0ff	0.417366
92	0xbd56b496	-0.052418314
93	0xbea1d613	-0.31608638
94	0xbebc31de	-0.36756796
95	0x3ecad4aa	0.39615375
96	0xbf069f94	-0.52587247
97	0x3f1a6be0	0.60320854
98	0xbd8aa034	-0.067688376
99	0x3ed28744	0.41118824
100	0x3e046b4d	0.12931557
101	0xbe581454	-0.21101505
102	0xbf085aa4	-0.53263307
103	0x3e169317	0.14704548
104	0xbedad5af	-0.42741153
105	0x3ec528ab	0.3850759
106	0xbe9df7f8	-0.30853248
107	0x3e187744	0.14889246
108	0xbe8ffb7d	-0.28121558
109	0xbeb00380	-0.3437767
110	0xbecbaba9	-0.39779404
111	0x3eb03a64	0.3441955
112	0x3cd2c4ba	0.025728572
113	0x3e2b4778	0.16726482
114	0xbe50a4b2	-0.20375326
115	0x3f115d37	0.5678286
116	0xbeaa4d5a	-0.3326214
117	0xbe86df9b	-0.26342472
118	0xbdb03465	-0.086037435
119	0x3ea2e1fa	0.3181303
120	0xbea6183f	-0.32440373
121	0x3eb098b0	0.3449149
122	0xbec56743	-0.38555345
123	0x3ef39db1	0.47581246
124	0xbe36a302	-0.1783562
125	0xbe6c29fe	-0.23062894
126	0xbe85211a	-0.26001817
127	0x3edced3e	0.4314975
128	0xbe8946b1	-0.26811746
129	0x3ea62dd9	0.32456854
130	0xbe963754	-0.29339087
131	0x3efe6c7d	0.49692145
132	0xbe7c0286	-0.24610338
133	0xbda702f0	-0.08154857
134	0xbebbdfa5	-0.36694065
135	0x3e9dbaf5	0.308067
136	0x3dccfedc	0.10009548
137	0x3f0f8fdd	0.5607889
138	0xbe5b3b4f	-0.21409343
139	0x3eaab9ca	0.3334487
140	0xbe65fd9d	-0.22460027
141	0xbe41433e	-0.18873307
142	0xbe2c6a9b	-0.16837542
143	0x3eef49d5	0.46736017
144	0xbed921f0	-0.42408705
145	0x3eb341e7	0.35011217
146	0xbe23c2c5	-0.15992267
147	0xbeff99fe	-0.49922174
148	0xbef61fad	-0.48071042
149	0xbe8ce973	-0.27521858
150	0xbebe701a	-0.37194902
151	0x3eda3d3f	0.42624852
152	0x3dfd78ec	0.1237658
153	0x3f05ed18	0.523149
154	0xbe5d9b7d	-0.21641345
155	0xbeaf8a87	-0.34285375
156	0xbe9f7dd2	-0.3115068
157	0xbebb8224	-0.36622727
158	0xbe9fb1db	-0.3119038
159	0x3ec84c61	0.39120772
160	0xbd52fd9d	-0.051511396
161	0x3e9ba807	0.30401632
162	0xbed96504	-0.4245988
163	0x3f2dbf88	0.6787038
164	0xbee5ed74	-0.44907725
165	0xbec78729	-0.38970307
166	0xbea27982	-0.31733328
167	0x3e4f0e2d	0.20220251
168	0xbd92dada	-0.07170649
169	0x3ec39993	0.38203105
170	0xbe8bdc6c	-0.27316606
171	0x3e817749	0.2528632
172	0xbd608b5a	-0.054820396
173	0xbe91338e	-0.28359646
174	0xbef6159f	-0.4806337
175	0x3ec8ba24	0.39204514
176	0xbdfbde51	-0.12298263
177	0x3e1c918a	0.15289894
178	0xbf053cc3	-0.5204584
179	0xbdc337e5	-0.095321454
180	0xbdfe19d8	-0.12407273
181	0xbee81e4d	-0.45335618
182	0xbe1db4a0	-0.15400934
183	0x3ef246f6	0.47319764
184	0xbe8f1039	-0.27942064
185	0x3ec25c11	0.37960866
186	0xbe902f62	-0.2816115
187	0x3e8cb5cf	0.2748246
188	0xbeb0e7cf	-0.34551856
189	0xbe98a25e	-0.29811376
190	0xbd91a6a7	-0.071118645
191	0x3ec3c0af	0.38232943
192	0xbec60418	-0.38674998
193	0x3e97be44	0.2963735
194	0xbe7ed21f	-0.24884842
195	0x3eeaa6ae	0.45830292
196	0xbeebaf3d	-0.46032134
197	0xbea3b2d7	-0.3197238
198	0xbe88f2d2	-0.26747757
199	0x3ecc97f2	0.39959675
200	0xbe96bdb1	-0.29441598
201	0x3ebc02fd	0.3672103
202	0xbe74ec35	-0.23918231
203	0x3e1ee4e4	0.15517002
204	0xbe6aa7be	-0.22915551
205	0xbed96449	-0.42459324
206	0xbea0553a	-0.31315023
207	0x3f1e56dd	0.6185129
208	0xbba43744	-0.005011471
209	0x3e733126	0.23749217
210	0xbe294db8	-0.16533554
211	0xbbb80664	-0.005615996
212	0xbedaf764	-0.4276687
213	0xbecf0f42	-0.40441328
214	0xbec1fcf8	-0.37888312
215	0x3ee8c834	0.45465243
216	0xbedf0359	-0.43557242
217	0x3e615a6f	0.22007154
218	0xbeeea7ff	-0.46612546
219	0xbdedd320	-0.116125345
220	0xbe840fba	-0.25793248
221	0xbe8ef9a8	-0.27924848
222	0xbee9dfd8	-0.45678592
223	0x3e93ebd0	0.28890848
224	0xbe83eca9	-0.25766495
225	0x3cac61d9	0.021042751
226	0xbe7341b3	-0.23755531
227	0x3ed238ec	0.41059053
228	0x3eaf8817	0.34283516
229	0xbe8cffa0	-0.27538776
230	0xbe118ad4	-0.14213115
231	0x3eca9db6	0.3957345
232	0xbc5abe5c	-0.013351049
233	0x3f07329e	0.5281161
234	0xbe79b6b6	-0.24386105
235	0x3eac859e	0.33695692
236	0xbdcc2f36	-0.09969942
237	0xbebad1b3	-0.36488113
238	0xbe9c2dc2	-0.3050366
239	0x3e69c8a6	0.22830448
240	0xbecdf044	-0.4022237
241	0x3e81ccb5	0.25351492
242	0xbdd3d230	-0.103428245
243	0x3ef4d1d6	0.47816342
244	0xbdac5a73	-0.08415689
245	0xbe6ce019	-0.23132361
246	0xbeabaa04	-0.3352815
247	0x3eb5a641	0.35478404
248	0xbed96e69	-0.4246705
249	0x3f18656f	0.59529775
250	0xbea274e5	-0.31729808
251	0x3d8ecb17	0.0697233
252	0xbe3034ae	-0.17207596
253	0xbedc3441	-0.43008617
254	0xbe5dca00	-0.21659088
255	0x3e876cad	0.264501
