wallaroo-model-operations-tutorials/observability/metrics-retrieval-classification/models/model-auto-conversion_pytorch_multi_io_model.pt (torch, 9723 bytes, 6 tensors)

weight f4 [20, 15]
00000000: d13c 56be be3c ebbd 84d4 453e 628e 1ebe
00000010: 31b5 223e 81db 333e 7dff 31bd addb 6abc
00000020: 8cdc e6bd d656 c43d e23a 64be 6b5d 80be
00000030: 114f 4ebe 47a1 6e3d 1b73 363e f808 e6bc
00000040: ec3b 0fbe 8103 aebc e7a2 79be 17a8 2a3e
00000050: 4015 663e 37aa 0c3e 5329 2e3e f49a 413e
00000060: 5a8b 7fbe 5095 bb3d d6b1 50bd 310a 5dbd
00000070: a7e4 b5bd 4d76 62bd eb06 bb3d 7ac9 78be
00000080: 1531 143e 4b2e 713d 16a0 0b3d 2ca3 10be
00000090: 4369 c3bc 4038 113d 06fd 58be 5c4c e6bd
000000a0: f5c5 ee3d 63dd f5bd 2082 e93d 06d8 883d
000000b0: 8b4f 543e ef40 a53d 0f43 90bd a7c3 6f3e
000000c0: fb61 3f3d 8275 4b3e 8701 b3bc 5351 7a3e
000000d0: f285 6c3e 1b63 e03d 48ae 493e deba 023e
000000e0: 2cc7 ffbc 2aa5 06bc 2390 1dbe 8da7 663e
000000f0: ab15 b4bd ec18 77be d30b 2cbd e224 40be
00000100: bffc 7e3e 091f 673e d4ad 6f3e 4e93 aebd
00000110: 8284 733d b655 2a3e d9f5 80be 073a 663e
00000120: 8ad2 0dbe 6e61 25be 483c 5b3e 9650 a8bd
00000130: 8cef 2abd ae43 df3c 4b24 2bbe 49c2 483e
00000140: e9a7 4cbe c8d0 81be 2533 80ba f507 63bd
00000150: 2b7d 7fbd 44f1 d63d 06fb 423e 1b2e 4cbd
00000160: 1079 37be 80b3 833e 65d1 d6bd 4fa1 483c
00000170: 98f8 253d 70e1 213b 3a3f 013e 37cf 5ebe
00000180: 2ba9 063d 653b 353e c23c 03be 9587 64be
00000190: 3e35 753e d376 663e ae84 063e ee54 34bb
000001a0: 6ac5 023e f950 13be 40db 53be 2300 8c3c
000001b0: a5b8 5f3e 5cec 85bc 8b95 1dbd 4fd9 b9bd
000001c0: 2ea1 3c3e 0971 81bd e5d2 813d b132 5a3e
000001d0: 93be 353e 3e40 0e3e 7d54 243e a704 2a3d
000001e0: a6d8 b93d 410a 8c3d cdc9 5e3e 47a1 573e
000001f0: 2325 4d3d 1b08 d13d 0ba6 34be 39a1 053e
00000200: 23cb ee3d bd70 d8bd f25e 243e 9709 2abd
00000210: d449 48be 1200 79be bf1a 4fbe 2407 233e
00000220: dcdf d03d cd6f 823e 9371 063e debf 16be
00000230: 93a0 463e 5489 21bd c4c9 703e 3f71 5cbe
00000240: d5e9 50be cd22 9c3c 9c76 5dbe f365 5b3e
00000250: c934 0ebd fc69 35be bf54 a73c 1fd0 cb3d
00000260: 1e1a 6a3e fc35 043e 8d52 18bd 3b91 613e
00000270: 3ec8 6dbe 961b 81bd 0eea cb3d 6141 463e
00000280: fe35 68be 99ad 88bd b379 463e c210 b33d
00000290: 1994 9fbc d316 80bd 9d20 d33d 2e65 403d
000002a0: 5c4f 6d3c 1de6 1abe 10f0 80be 0e86 92bd
000002b0: 7f26 5fbe ee39 d33d d93d 61bd 82cc 2b3e
000002c0: 791f aebd 8f0c 933c 0dd7 2cbe a621 3f3e
000002d0: 4ca2 713e fd13 1e3e fabc 06be 25b4 f3bc
000002e0: 4bfc 143e 33e6 633d 198d 573e cf3d 47be
000002f0: 8b06 7cbe bf4a 403e 576b 673e fa2e 833e
00000300: 25e3 89bd 2374 e2bd f656 acba 923e 423e
00000310: cf57 1f3c 42f0 c9bd b7c0 ef3d a513 153e
00000320: d641 993d 05ac 3bbe e9c5 833e fb06 2b3e
00000330: bac3 71bd 3139 39be 1724 323d a6a7 70be
00000340: 2f7b 903d abb3 1ebe 50f0 a03d 0983 d33d
00000350: 5df6 24be 637c 9abc cea5 393e 75a5 b53d
00000360: da16 05be fb36 f2bb b8a3 0f3d 6988 61be
00000370: 74d2 aebc 3468 4dbe a6ca 303d 712a 843e
00000380: 258d 023e 82e4 433e 4278 713e 4d31 9e3d
00000390: f585 923d df36 133d 7385 ed3d 6f23 243e
000003a0: 7cf4 9e3d 9380 2d3e c8c3 35be b1da 733e
000003b0: 43e4 ea3c de79 db3d 3e47 47be 18a4 613d
000003c0: 4eb9 2b3e 6338 6fbd deda e93d ab29 76bd
000003d0: 3043 f4bc 600c 9d3d 62ab ff3d 1238 813e
000003e0: 7a58 4bbd 96fa fbbd a94d 70be ce1f 603e
000003f0: b7bf 823e 2f76 7c3d 4f03 4c3d 8d49 11bd
-0.20921637 -0.11486195 0.1931935 -0.15484002 0.15889432 0.17564203 -0.043456543 -0.014334601
-0.11272535 0.09586875 -0.22288087 -0.25071272 -0.20147349 0.058259275 0.17817347 -0.028080449
-0.13987702 -0.021241905 -0.24378549 0.16665684 0.22469044 0.13736807 0.17007951 0.18906766
-0.24955502 0.091593385 -0.050950848 -0.053964797 -0.088815026 -0.0552886 0.09132179 -0.24295607
0.14471848 0.05888204 0.034088217 -0.14124745 -0.023853904 0.035454035 -0.21190271 -0.11245033
0.11658851 -0.12005117 0.114017725 0.06681828 0.20733468 0.08069026 -0.070440404 0.23414479
0.0467243 0.19869044 -0.021851314 0.24445085 0.23097971 0.10956403 0.1969539 0.12766597
-0.031222902 -0.008218089 -0.15387015 0.22524853 -0.08793195 -0.241306 -0.042003464 -0.1876407
0.24901102 0.22570433 0.23406154 -0.0852419 0.05945254 0.16634259 -0.25187567 0.22483073
-0.13849846 -0.16150448 0.21409714 -0.082184955 -0.041732356 0.027253952 -0.16713063 0.19605364
-0.19985928 -0.253546 -0.0009780867 -0.05542751 -0.06237523 0.104952365 0.1904107 -0.049848657
-0.17917275 0.25722885 -0.104891576 0.01224549 0.04052028 0.0024701022 0.12621775 -0.21758734
0.032876175 0.17698438 -0.12816146 -0.22317345 0.23946092 0.22506265 0.13136551 -0.0027516442
0.1277062 -0.14386357 -0.20689106 0.017089909 0.2184778 -0.016348056 -0.038472693 -0.090746514
0.1842086 -0.06320388 0.06339053 0.213084 0.1774848 0.13891694 0.16047855 0.041508343
0.090745255 0.06837893 0.21756668 0.21057616 0.050084244 0.10206624 -0.17641465 0.13049783
0.11659839 -0.10568378 0.16051844 -0.04151305 -0.19559413 -0.24316433 -0.20225047 0.15920693
0.10198948 0.25475922 0.13129263 -0.14721629 0.19397192 -0.039437607 0.23514467 -0.21527575
-0.204017 0.019059563 -0.21627277 0.2142561 -0.03471831 -0.17716211 0.020426152 0.09951805
0.22861525 0.12911218 -0.0371881 0.22028057 -0.23220918 -0.0630409 0.09956752 0.19360878
-0.22676846 -0.06673736 0.19382362 0.08743431 -0.019479798 -0.062543534 0.10308955 0.046971492
0.014484253 -0.15126844 -0.25183153 -0.07154475 -0.21792029 0.103137836 -0.054990623 0.16777232
-0.08502097 0.017950324 -0.1687891 0.1866518 0.23597068 0.15437312 -0.13158026 -0.029748986
0.14549367 0.055639457 0.21049918 -0.19457172 -0.24611871 0.18778513 0.2259954 0.25621778
-0.067327775 -0.110573076 -0.0013148475 0.18969181 0.009725525 -0.09860279 0.11706679 0.14558275
0.0748326 -0.18327339 0.2573693 0.16701882 -0.05902455 -0.18088223 0.04349145 -0.23501453
0.070547454 -0.15498225 0.07858336 0.10327727 -0.16109605 -0.01885814 0.18129656 0.08869449
-0.12996998 -0.007391808 0.035068244 -0.22024693 -0.021340586 -0.20059282 0.04316201 0.2581363
0.12749155 0.19130138 0.23581031 0.07724247 0.071544565 0.035941 0.11597719 0.16029142
0.077614754 0.16943578 -0.17750466 0.23813893 0.028673297 0.10716604 -0.1946077 0.055088133
0.16769907 -0.058403384 0.11418699 -0.06009833 -0.029817194 0.07668376 0.124838606 0.2523809
-0.049644925 -0.12303655 -0.23467125 0.21887133 0.25536892 0.061636146 0.049807843 -0.035470534

bias f4 [20]
00000000: cbbd 2d3e 4b66 c0bd cf59 e4bd 7fb2 2dbe
00000010: 3a1e 0b3e d74a 30bd d366 15be 8527 043e
00000020: 0ae7 0e3c 20d6 6a3e dbe8 673e c13b fd3d
00000030: 96de 2abe 0857 3dbe 98f1 a2bd a37b ddbd
00000040: 3d81 4abd 2149 3d3e 8ed5 10bd 7d96 fc3d
0.16966932 -0.09394511 -0.11149942 -0.16962622 0.1358575 -0.043040123 -0.14590006 0.129057
0.008722076 0.22933245 0.22647421 0.12364913 -0.16686472 -0.18490231 -0.079562366 -0.108145975
-0.049439657 0.18484928 -0.03535991 0.12333391

weight f4 [3, 20]
00000000: 7efc 18be e898 cfbc 6f27 c33d ebab a43d
00000010: 0814 613d 825d 24be 203b 2a3e 620a b0bd
00000020: 7ff8 023e a853 b03d 7948 cc3d a1ee aebb
00000030: 033f 1ebd 3928 76bd 73d3 3f3e 1407 a3bd
00000040: 92e6 58be f54c ea3b a2d2 bdbd cfa3 173e
00000050: b508 ce3d 9ec7 0dbe 0359 40be de43 383e
00000060: 6b08 263e 1668 17bd ebc8 013e 6d13 34be
00000070: c54d 7abc 7cd2 3c3e 67b5 35be 7e87 06be
00000080: 044d 2b3e 6f41 25be 6fef 2c3e 3798 72bd
00000090: 7b1f 1e3d ae82 9dbd f921 56be 2ec3 18bd
000000a0: 0642 533e 3158 4abd 2a3c ec3d 3c14 3ebe
000000b0: 90af e7bd 9eb1 dfbd fba7 313e ecbf 7abc
000000c0: e0b0 30be 91f9 e2b9 c8e3 443e f77b a93d
000000d0: 5ed1 3bbe 6d7d be3d 90e5 3c3e d6ac 923c
000000e0: 597f f63d d2df 85bd eb7c 43be c8cb 643e
-0.14940068 -0.025341466 0.09529006 0.08040603 0.054950744 -0.16051295 0.16624117 -0.0859573
0.12790106 0.08609706 0.099747606 -0.0053385054 -0.03863431 -0.060096953 0.18733005 -0.079603344
-0.21181706 0.0071502873 -0.09268691 0.14808582 0.100602545 -0.13845679 -0.18783955 0.1799464
0.16214149 -0.0369645 0.126743 -0.17585535 -0.015277331 0.18439668 -0.17744981 -0.13137624
0.16728598 -0.16138242 0.16888212 -0.059227195 0.03860424 -0.07690941 -0.20911397 -0.037295513
0.20630655 -0.049400512 0.11534913 -0.18562406 -0.11312783 -0.1092255 0.17349236 -0.015304547
-0.17254972 -0.0004329202 0.19227517 0.082755975 -0.18341586 0.09301267 0.18446946 0.01790468
0.120360084 -0.06536831 -0.19090621 0.22343361

bias f4 [3]
00000000: fb4f cdbd 5770 68bd e771 353e
-0.10025021 -0.05674776 0.17719232

weight f4 [2, 20]
00000000: 87a5 e63d ddd9 0e3e 7b71 75bd cddf c6bc
00000010: bdaa 613e 8013 b93d 8f8b 91bd 3052 2abe
00000020: 3d58 1f3e 5dab 3abe 1f59 563e c4b8 39be
00000030: b7c2 dabd b448 c13d 55fe 0e3e a840 593e
00000040: cbfe bbbd 7d46 44be b79f 50be 6bf0 81bc
00000050: 9f6f 5d3e 0c36 3abe 3141 87bd ba61 bcbb
00000060: 4184 ffbd 4206 e33c fe20 03be b10e eeb9
00000070: 4b3d ae3d 422a 3c3e 6136 a03d 728c 0c3e
00000080: 57d0 56be b374 3dbe f0c8 d53c c1bf 503e
00000090: 867d 733b fecc 443e 0e84 c03c b702 83bd
0.112620406 0.13950296 -0.059922677 -0.024276638 0.22037788 0.090369225 -0.07106697 -0.16632915
0.15561004 -0.18229432 0.20932434 -0.18136889 -0.1068167 0.09437695 0.13964207 0.2121607
-0.09179457 -0.19167514 -0.20373426 -0.01586171 0.21624611 -0.1818468 -0.06604231 -0.0057489546
-0.12476397 0.027712945 -0.12805554 -0.00045405843 0.085077845 0.18375495 0.07822872 0.1372545
-0.20977913 -0.18501548 0.026096791 0.20385648 0.0037153675 0.19218823 0.023500469 -0.06397002

bias f4 [2]
00000000: 4cfb 51bc 9860 1ebe
-0.0128162615 -0.15466535
