wallaroo-model-upload-tutorials/pytorch-upload-tutorials/models/model-auto-conversion_pytorch_single_io_model.pt (torch, 5870 bytes, 3 tensors)

weight f4 [20, 10]
000000 81 a5 51 3d 61 59 30 3e b2 3c 87 3e 24 40 a1 be
       0.051183227 0.17221595 0.26413494 -0.31494248
000010 1e 9b 94 3e 9b 76 73 be 0e fc 9e be 7b cf a0 bd
       0.29024595 -0.23775713 -0.31051677 -0.07852074
000020 33 74 91 3e f4 03 87 3e f5 8e 9a be 25 c5 1f be
       0.28408965 0.26370203 -0.30187193 -0.15602548
000030 f9 0d 2e be a8 29 81 3e 44 fa 23 3e 61 2f 72 3e
       -0.16997518 0.25227094 0.16013438 0.23650886
000040 55 d7 5e 3e 29 f3 95 3e 02 0a 4f 3e 61 d4 09 3d
       0.2176183 0.2928708 0.20218661 0.033649806
000050 72 34 5e 3e 61 88 4f 3e d5 d0 8a 3e a9 5b 5d 3e
       0.21699694 0.20266868 0.2711245 0.21616997
000060 a4 27 5a 3e 27 84 c9 3d bf ae 1c be 87 6e 92 be
       0.21304184 0.09839659 -0.15301035 -0.2859995
000070 28 05 51 3e 0a 79 30 be 6e 16 6e be f6 e5 b5 3c
       0.20412123 -0.17233673 -0.23250744 0.02220438
000080 f9 e3 9a 3e 16 2c 68 be 7a 47 27 be 95 25 0e 3e
       0.30252054 -0.22673067 -0.1633586 0.13881524
000090 bc b7 3a 3e b4 84 1f bd db 22 f0 3d 28 ec 86 3e
       0.18234152 -0.038944915 0.11725398 0.26352048
0000a0 36 99 1f be 9a fc 99 3e 0a af 41 be 61 0d 88 3e
       -0.15585789 0.30075532 -0.18914428 0.26572707
0000b0 7e 7e 48 3d 6b 58 58 be f8 7d 06 3d 18 68 aa 3d
       0.048948757 -0.21127479 0.032834977 0.083206356
0000c0 a3 a3 0c 3d dc 71 34 be 65 b5 0a 3e f7 3d e5 bd
       0.034335744 -0.17621559 0.13545759 -0.111934595
0000d0 4c e0 55 3e 50 59 24 be 14 13 88 3d 00 25 94 3e
       0.20886344 -0.16049695 0.06644264 0.2893448
0000e0 cf bd 70 3e b2 db 98 3e 18 5e 5f 3e e2 f5 1a 3e
       0.23509906 0.29855114 0.21813238 0.1513286
0000f0 ac db 6d 3e d5 45 85 bd 2c 4b b9 bd b7 31 05 3e
       0.2322833 -0.0650746 -0.09047541 0.13007246
000100 1b 36 d0 bd 78 72 6a 3e 87 26 17 3e 1d 47 78 be
       -0.1016657 0.22895229 0.14760791 -0.24245878
000110 01 21 89 3e e3 14 8a 3c 35 b9 79 3e ab 40 82 3e
       0.26782992 0.016855663 0.24387057 0.25439963
000120 5c 5c 01 3e 71 e1 2b be 94 1d 3b be 39 7c 93 be
       0.12632889 -0.16785218 -0.18273002 -0.28805712
000130 13 1f 7f 3d 1a 4b e4 bd 0c e2 9b 3e b8 d4 2f 3e
       0.062285494 -0.11147137 0.30445898 0.1717099
000140 7f 8b 8f 3e 81 ba 6e be 6e 9d 0f bc 09 11 b1 bb
       0.28036115 -0.23313333 -0.0087655615 -0.005403642
000150 7b 64 69 3e bb 5f 8f 3e 79 fc 7c bd 12 b5 1e 3e
       0.22792237 0.28002724 -0.061764214 0.1549876
000160 e7 44 9b be f5 15 59 be a0 11 aa 3d 7c ee a0 3e
       -0.30326006 -0.21199782 0.08304143 0.3143195
000170 07 b0 d9 bc 87 92 20 be 63 be 73 be 65 2a 0c 3e
       -0.026573194 -0.15680896 -0.23803096 0.13688047
000180 e6 64 cb bd a8 52 7a be da 6f 80 3e 6d 80 f1 3b
       -0.09931354 -0.24445593 0.25085336 0.007370046
000190 f1 8d 00 bd 3b 73 81 be 5f d4 a8 3d d5 1b 15 3e
       -0.031385366 -0.25283226 0.082436316 0.14561398
0001a0 ef 86 9f be 1e 62 9b 3e 44 8c 66 3e a8 03 db bd
       -0.31157634 0.30348295 0.22514445 -0.10694057
0001b0 6f d9 5e be dd fa 96 3e c8 bd 7c 3c 3e 92 22 be
       -0.21762632 0.29488268 0.015426107 -0.158761
0001c0 5b 13 d2 3d d0 c3 14 be 11 1c 14 3d 1e 8e 86 3e
       0.10257598 -0.14527822 0.03615958 0.26280302
0001d0 a1 b1 4f be f7 c8 f5 bd 27 aa f2 3d 0d bb cb 3c
       -0.20282604 -0.120012216 0.1184886 0.024869466
0001e0 0b ef 74 be d0 fd 92 3e 8f fb ee bc 80 36 0f 3d
       -0.23919313 0.2870927 -0.029172687 0.034964085
0001f0 15 8e 79 be f4 70 29 be 99 bc 8b 3e e7 67 53 3e
       -0.24370606 -0.16546994 0.27292326 0.20645104
000200 83 0c 81 bd c3 2e 4e 3d f3 44 b3 3c d6 55 9c be
       -0.063012145 0.050337564 0.021883463 -0.30534238
000210 c6 f6 74 3d dc 18 15 3e b1 8f ef bd 59 40 92 3e
       0.059805654 0.14560264 -0.11697329 0.28564718
000220 58 5f 6d be 2c c6 d7 3d ee 29 09 3a 6b 99 14 3e
       -0.23180902 0.10535845 0.0005232383 0.1451165
000230 ce ef b2 3c fd 69 65 be bb e5 0e 3e 99 b5 2b be
       0.021842863 -0.22403713 0.13954823 -0.16768493
000240 05 1f 0c be 3e 48 a1 3e 85 d3 9b be 67 9c 93 3e
       -0.13683708 0.3150043 -0.30434814 0.28830263
000250 5f fc 5b 3b 05 04 32 be 99 90 5d 3e 6c b2 6b 3e
       0.0033567173 -0.17384346 0.21637191 0.23017281
000260 72 be 22 be 36 7e ba 3d 9a de 2a 3d 04 79 36 be
       -0.15892962 0.09106104 0.041716196 -0.17819601
000270 22 62 18 3e d7 82 f8 3d 18 81 d7 bc b3 d4 22 3e
       0.14881185 0.12134331 -0.026306674 0.15901451
000280 98 86 8c be af 21 7f be ce cc 2f be c1 f5 62 3e
       -0.27446437 -0.24915193 -0.1716797 0.2216406
000290 75 98 7f be de 6f 81 bd 67 86 52 3e 0d fb 8d be
       -0.24960501 -0.06320165 0.20559083 -0.277306
0002a0 4b d8 94 3e 0b 0f b8 bd 02 98 1e 3e 2d db 26 3d
       0.29071268 -0.08987244 0.15487674 0.040736366
0002b0 ae 22 4d bb 9a 35 db bd 40 19 e3 bd 34 6f 59 3c
       -0.0031301188 -0.10703583 -0.110888004 0.013271142
0002c0 d8 82 25 3e 38 9d 8a 3e 74 ca dc bd af 99 97 3c
       0.16163194 0.27073073 -0.10780802 0.0185059
0002d0 b2 68 5f 3e 01 0c 86 be 34 dd 9f 3e 34 1b 3c 3d
       0.21817282 -0.26181033 0.31223452 0.04592438
0002e0 11 db 66 be a5 79 9e be 78 5a 14 3e fa 4a 14 be
       -0.22544505 -0.30952182 0.14487636 -0.14481726
0002f0 27 cf 3b 3d f4 cd 76 3d 9f dd 55 bc fc 38 ef 3b
       0.045851853 0.060255006 -0.013053327 0.0073004942
000300 1a 4e e0 3d 46 b1 02 3e 5f 7b 0e bd d3 6f 64 3e
       0.10952397 0.12762937 -0.034785625 0.22308283
000310 09 24 57 3e 59 5b 27 be 9e 6a 76 3e 27 8b 81 be
       0.2100984 -0.1634344 0.24064109 -0.25301477

bias f4 [20]
000000 e6 e4 0f 3c cb 44 96 be d4 b8 23 bb 13 10 dc bd
       0.008782601 -0.2934936 -0.0024981992 -0.107452534
000010 f4 4d 40 be ba 45 34 3d d1 e1 43 bc 52 1a bd 3d
       -0.18779737 0.04401181 -0.011955694 0.09233536
000020 17 ba c6 3d 54 36 81 be 40 84 02 3e dd 5b 3e 3e
       0.097034626 -0.25236762 0.12745762 0.1858973
000030 74 f5 5b 3d 85 e7 14 be c3 6c 0c 3e cb 40 cf 3d
       0.05370088 -0.14541443 0.13713364 0.1011978
000040 ea ae 48 be 93 70 3a bd 59 5e 96 bd 8b 28 7c 3e
       -0.19597974 -0.045517515 -0.07342214 0.24624841

weight f4 [1, 20]
000000 32 d2 2a 3e f2 ca c3 bd bc b5 63 3c d7 00 1a 3e
       0.16681746 -0.09560193 0.013898309 0.15039383
000010 1c 5e 89 bd 62 59 10 3e 7c 06 a0 bd 6e 84 65 bd
       -0.06707403 0.14096597 -0.07813737 -0.056034498
000020 95 74 42 be ba 42 0d be 59 ba 51 3e 37 2c 01 3e
       -0.18989785 -0.13794985 0.20481242 0.12614523
000030 c9 0e 47 3e fa b0 2f be 6c ed 20 3e e2 9a bc bd
       0.19439234 -0.17157355 0.1571557 -0.09209229
000040 33 e6 c4 bd a0 e0 89 bd 76 38 57 3d ac 1f b9 bd
       -0.096142195 -0.06732297 0.05254408 -0.09039244
