wallaroo-run-anywhere/pipeline-architecture/wallaroo-arm-classification-finserv/models/ccfraud.onnx (onnx, 1928 bytes, 3 tensors)

dense_1/kernel:0 f4 [10, 1]
000000 70 34 96 3e d2 21 86 3e 64 41 c6 be 4c f7 00 bf
       0.29336882 0.26197678 -0.38721764 -0.50377345
000010 d2 54 1b bf 23 77 47 3e 68 70 b2 be 30 ed a3 3e
       -0.606763 0.19479041 -0.34851384 0.32016897
000020 db 7b 19 bf 01 1a 05 bf
       -0.59954613 -0.51992804

dense/kernel:0 f4 [29, 10]
000000 44 a1 f4 3d 69 0b b0 3d ed 4e f6 3e d4 5a 6d be
       0.119448215 0.08595926 0.4810709 -0.2317918
000010 30 60 7e bd d6 20 2c 3e c0 3f 82 3c 4a d4 43 be
       -0.06210345 0.16809401 0.015899539 -0.1912395
000020 81 92 ee bd e3 2c a1 be f3 66 d4 3e 0f a4 c8 3d
       -0.11649037 -0.31479558 0.41484794 0.09796917
000030 36 25 c9 be 4a c0 9c 3d 5c ba 15 be b1 c5 43 be
       -0.39286202 0.07653864 -0.14621872 -0.19118382
000040 4d e1 d6 be 88 64 7f bd f1 1b 96 3e 9e 43 6e 3a
       -0.41968766 -0.062351733 0.29318193 0.0009089055
000050 38 43 6d be f9 1d a5 be e0 b3 12 3d d3 d4 26 bd
       -0.23170173 -0.3224943 0.035816073 -0.04073031
000060 5a 7d 74 bd 56 d4 f7 be 74 33 c9 3e 69 9c be be
       -0.059689857 -0.48404187 0.39297068 -0.37228706
000070 56 a2 e4 3d f3 94 55 3d 07 e1 85 bd 58 71 93 bd
       0.111637756 0.052144002 -0.06537061 -0.07199353
000080 33 f3 ca b9 95 79 50 3e 24 17 05 bf 3c 20 af 3e
       -0.0003870964 0.2035888 -0.51988435 0.3420428
000090 36 02 1f be 03 fb 58 3d 13 d6 0c 3d bd 6c 03 bf
       -0.15528187 0.05297376 0.034383845 -0.51337796
0000a0 97 d2 c9 bb a9 47 9c 3c 26 ff be 3b f9 1a 09 bd
       -0.0061591375 0.019077139 0.005828756 -0.03347299
0000b0 8a c2 2c be 54 48 d0 be 29 80 2b be a1 43 69 be
       -0.16871086 -0.40680182 -0.16748108 -0.22779705
0000c0 ef 0f 7a be 9e fa a3 3e 82 3c 3e 3e cd 10 eb bd
       -0.2442014 0.32027143 0.1857777 -0.11477814
0000d0 ee 9a c1 3e 1a e9 11 be 49 e1 02 be 6b ee 73 3b
       0.37813514 -0.14249077 -0.12781252 0.0037220966
0000e0 ed 22 cd bd 1c af 87 be a6 20 50 3d 3a ca 4c 3e
       -0.10016427 -0.26500785 0.050812386 0.19999018
0000f0 14 c0 31 bd 67 18 e0 be db 50 37 3d dd 55 49 be
       -0.04339607 -0.43768618 0.044754844 -0.1966166
000100 2f 10 91 bd af 98 d6 bc 6d d4 bc bd 51 ac 35 be
       -0.07083165 -0.026195852 -0.092202045 -0.17741515
000110 96 69 80 bc ac eb fb 3d 24 c4 0b 3e ce ef 1c be
       -0.015675347 0.1230081 0.1364904 -0.15325853
000120 98 00 03 be 56 03 35 be ae 5f d4 bd 56 66 88 3e
       -0.12793195 -0.17677054 -0.10369812 0.26640576
000130 9a c9 aa be 6a d1 39 be 6e f4 d0 3d de 38 aa 3e
       -0.33356935 -0.18146291 0.10202871 0.3324651
000140 49 1b 2e 3d 53 ae f9 be ee 16 6b be 28 06 09 3e
       0.04250649 -0.4876581 -0.22957966 0.13381255
000150 76 02 11 3e 81 bf 0e bf 56 07 06 be 23 f5 d7 3d
       0.14161095 -0.5576096 -0.13088736 0.10544803
000160 b5 ab eb bc 50 eb d6 3c 2c 1d c5 be c0 4f 9d be
       -0.0287684 0.026235253 -0.3849882 -0.30724907
000170 83 8c 66 3e e5 58 bf 3e d1 64 c9 3e e3 c6 0c bf
       0.22514538 0.3737251 0.3933473 -0.5499098
000180 1d 32 67 be 68 32 49 3c d5 ff 20 be 32 f3 b6 3c
       -0.2257771 0.012280084 -0.15722592 0.022332761
000190 df 60 14 3e 98 a4 b3 bd 3e 9c 3b be 80 60 97 be
       0.14490078 -0.08771628 -0.1832132 -0.2956581
0001a0 78 76 2a 3e c1 fb e6 3e 23 0f a4 3e e9 2e 83 3e
       0.16646755 0.45113948 0.32042798 0.25621727
0001b0 d9 5f c6 be 3f 1c c4 be 8a 44 ef be a9 5a 6f be
       -0.38745 -0.383028 -0.4673198 -0.23374428
0001c0 36 df 75 3a 9c 39 61 be c5 1a 7e 3d 3f ba d9 bd
       0.00093792693 -0.21994632 0.06203725 -0.10631227
0001d0 66 d5 f9 3e dc 31 22 be 8d 7e 32 3e 86 11 6e be
       0.48795623 -0.15839332 0.17431088 -0.23248872
0001e0 9c d2 81 be 15 44 b9 bd 4b 78 25 bd 63 a3 98 3e
       -0.25355995 -0.09046189 -0.040397923 0.29812154
0001f0 fa 22 a0 3e 44 78 97 3d 20 d9 6c 3e ee 20 b4 3d
       0.31276685 0.07395986 0.23129702 0.08795343
000200 a7 24 60 be 88 94 a0 be be 7e a2 bc 3d b7 82 bd
       -0.21888982 -0.3136332 -0.019835826 -0.06382606
000210 65 0e 19 39 12 77 a0 3c a1 39 01 be cb d8 16 bf
       0.0001459658 0.019588027 -0.1261964 -0.5892455
000220 05 f2 0a be a9 5f fe be c2 6a bc 3e 56 d7 db 3d
       -0.13568886 -0.49682358 0.368002 0.107344314
000230 22 de a1 bd 7c ab 30 be 0c b4 d0 3e 63 74 64 3d
       -0.079036966 -0.17252916 0.40762365 0.055775058
000240 d9 3e 71 3e 9f b4 02 3e 0e ae b4 be 8d 74 a2 bd
       0.2355913 0.12764214 -0.35289043 -0.079323865
000250 5e 87 2f be 3f ee 58 bd 44 9e f5 be 5c 9b 69 be
       -0.17141482 -0.052961584 -0.4797231 -0.22813171
000260 53 93 fb 3d da d3 5f be ce 2f 95 bd d9 cb 9a be
       0.12283959 -0.21858159 -0.07284509 -0.30233648
000270 df 32 b0 3e e9 4d e2 be 00 7c 0f be 9b a3 63 be
       0.34413812 -0.44200066 -0.14012146 -0.2223038
000280 94 7c 4f 3e 4f cd a1 be 94 70 81 be 18 b3 d4 3e
       0.20262367 -0.3160195 -0.25281203 0.41542888
000290 d2 90 04 bd fa e4 11 be c6 87 2f 3e 72 ba 8d bc
       -0.032364674 -0.14247504 0.17141637 -0.017300818
0002a0 ab 18 74 be ed f1 94 3e a5 37 bb bd 19 f1 4f 3d
       -0.23837535 0.29090825 -0.09141473 0.050767038
0002b0 e5 4c c9 3e 54 b7 c0 3e c9 b9 26 bd 0f 81 b4 3d
       0.39316478 0.37639868 -0.040704522 0.088136785
0002c0 10 66 c0 bc e1 5e 8c bd 00 7b cb 3d 0d b6 0b be
       -0.023486167 -0.06854034 0.0993557 -0.13643666
0002d0 09 be bb 3e a8 5f 93 be af b1 ae be ea 04 ba bd
       0.36668423 -0.28783917 -0.34119937 -0.090829685
0002e0 c1 b0 44 bc 38 6f 4e be 78 dc 8b 3e 8b 2a 99 be
       -0.012005032 -0.20159614 0.27316642 -0.2991527
0002f0 7f 60 b2 be 46 a4 95 be 53 91 0a 3e 68 8a 96 3d
       -0.34839246 -0.29226893 0.13532 0.07350618
000300 cf 5b b7 3d bf ba a7 be 35 ae 0d 3d 03 d0 7c be
       0.08953058 -0.32759663 0.034589965 -0.24688725
000310 c6 b2 ba bd ac f5 2d 3e 29 1f 55 be 66 32 d2 3e
       -0.091161296 0.16988248 -0.20812668 0.41054076
000320 ad 2e be 3e 61 eb c5 bd 3b f2 a5 3e 61 2b 9e 3c
       0.37144986 -0.096640356 0.3241137 0.019307794
000330 c9 4c 2b 3e b9 a8 df 3d b7 16 1e be 31 a1 ba 3e
       0.1672851 0.10920853 -0.15438353 0.36451104
000340 cc c4 ec bd 79 a0 a7 be 03 56 58 bd 6c 6b 4e 3e
       -0.115609735 -0.32739618 -0.052816402 0.20158166
000350 8d 2f 53 3e 81 92 63 3e db a2 8f be 91 7b 7f 3e
       0.20623608 0.22223856 -0.28053936 0.2494948
000360 bd 5a 7c 3d 6c c1 8e be f3 20 19 be f2 09 08 be
       0.061609972 -0.27881944 -0.14953975 -0.13285044
000370 91 7f 9a 3e 95 f1 70 be 3f 91 75 3e 6c ac 0b 3e
       0.3017545 -0.23529656 0.23981188 0.13639992
000380 e6 a1 70 be 8a 0a 8d bd c4 b3 87 3e 61 44 82 3c
       -0.2349926 -0.06886776 0.26504338 0.015901746
000390 2f a8 2c 3e ab e1 0b be dc 8b 4c be 0e c1 af 3d
       0.16861032 -0.13660304 -0.19975227 0.08581744
0003a0 24 09 91 be 3c e7 05 bd d9 0b b9 be 21 1a 0d 3e
       -0.28327286 -0.032691225 -0.36141852 0.13779499
0003b0 71 9f 84 be ba c7 8f be 1c fd a3 3e 29 38 1c 3e
       -0.25902894 -0.28082067 0.32029045 0.15255798
0003c0 43 64 44 bd 43 59 6d be b1 ca 4f 3d ee 8e a9 be
       -0.04794718 -0.23178582 0.05073041 -0.3311686
0003d0 81 58 6e be bb fb a1 be c3 57 8a 3e 88 49 d9 3d
       -0.23275949 -0.31637368 0.27020082 0.10609728
0003e0 f4 63 3e be 0b 37 97 be 32 e9 69 be 6d bf 0d 3e
       -0.18592817 -0.29534182 -0.22842863 0.13842554
0003f0 7b 28 e2 bb 03 bc 52 be 2e 02 bf 3e a5 84 1a 3e
       -0.0069017983 -0.20579533 0.3730635 0.15089662

dense/bias:0 f4 [10]
000000 66 d0 21 be 3b ef 1c be c3 a3 34 bc 80 72 e1 bd
       -0.15802154 -0.15325634 -0.011025372 -0.11008167
000010 0a f8 63 bd 19 2e ae bd d8 1a 0b 3e 27 78 0f be
       -0.05565647 -0.08504886 0.13584459 -0.14010678
000020 d2 83 bc 3c 52 55 5e 3e
       0.023012076 0.21712235
